Namespace(Adiscription='BiomedCLIP + tabtransformer', base_lr=0.0005, batch_size=1, d_model=256, gpu='0', hidden_dim=64, init_lr=1e-07, lr_way='cos', model_mode='image', nclass=2, num_epochs=100, num_warmup=10, saveName='modality_ablation', savePath='log/modality_ablation', seed=3407, weight_decay=0.0005)
image_model(
  (atten_pool): FCN(
    (conv): Sequential(
      (0): Conv2d(768, 32, kernel_size=(3, 3), stride=(1, 1), padding=(1, 1))
      (1): Conv2d(32, 16, kernel_size=(3, 3), stride=(1, 1), padding=(1, 1))
      (2): Conv2d(16, 8, kernel_size=(3, 3), stride=(1, 1), padding=(1, 1))
      (3): Conv2d(8, 1, kernel_size=(3, 3), stride=(1, 1), padding=(1, 1))
    )
  )
  (conv3): Sequential(
    (0): Conv3d(768, 8, kernel_size=(4, 3, 3), stride=(1, 1, 1), padding=(1, 1, 1))
    (1): MaxPool3d(kernel_size=(4, 2, 2), stride=(4, 2, 2), padding=0, dilation=1, ceil_mode=False)
    (2): Conv3d(8, 256, kernel_size=(4, 3, 3), stride=(1, 1, 1), padding=(1, 1, 1))
    (3): MaxPool3d(kernel_size=(4, 2, 2), stride=(4, 2, 2), padding=0, dilation=1, ceil_mode=False)
  )
  (gap): AdaptiveAvgPool3d(output_size=(1, 1, 1))
  (classifier): Sequential(
    (0): Linear(in_features=256, out_features=64, bias=True)
    (1): Linear(in_features=64, out_features=64, bias=True)
    (2): Linear(in_features=64, out_features=64, bias=True)
    (3): Linear(in_features=64, out_features=2, bias=True)
  )
)
Total trainable pytorch params:0.5471469999999999 MB
Total pytorch params:0.5471469999999999 MB
----------
Train Epoch 0/99
Namespace(Adiscription='BiomedCLIP + tabtransformer', base_lr=0.0005, batch_size=1, d_model=256, gpu='0', hidden_dim=64, init_lr=1e-07, lr_way='cos', model_mode='tabular', nclass=2, num_epochs=100, num_warmup=10, saveName='modality_ablation', savePath='log/modality_ablation', seed=3407, weight_decay=0.0005)
tabular_model(
  (tabular_transformer): TabTransformer(
    (category_embed): Embedding(11, 28)
    (norm): LayerNorm((23,), eps=1e-05, elementwise_affine=True)
    (transformer): Transformer(
      (layers): ModuleList(
        (0): ModuleList(
          (0): PreNorm(
            (norm): LayerNorm((32,), eps=1e-05, elementwise_affine=True)
            (fn): Attention(
              (to_qkv): Linear(in_features=32, out_features=384, bias=False)
              (to_out): Linear(in_features=128, out_features=32, bias=True)
              (dropout): Dropout(p=0.1, inplace=False)
            )
          )
          (1): PreNorm(
            (norm): LayerNorm((32,), eps=1e-05, elementwise_affine=True)
            (fn): FeedForward(
              (net): Sequential(
                (0): Linear(in_features=32, out_features=256, bias=True)
                (1): GEGLU()
                (2): Dropout(p=0.1, inplace=False)
                (3): Linear(in_features=128, out_features=32, bias=True)
              )
            )
          )
        )
        (1): ModuleList(
          (0): PreNorm(
            (norm): LayerNorm((32,), eps=1e-05, elementwise_affine=True)
            (fn): Attention(
              (to_qkv): Linear(in_features=32, out_features=384, bias=False)
              (to_out): Linear(in_features=128, out_features=32, bias=True)
              (dropout): Dropout(p=0.1, inplace=False)
            )
          )
          (1): PreNorm(
            (norm): LayerNorm((32,), eps=1e-05, elementwise_affine=True)
            (fn): FeedForward(
              (net): Sequential(
                (0): Linear(in_features=32, out_features=256, bias=True)
                (1): GEGLU()
                (2): Dropout(p=0.1, inplace=False)
                (3): Linear(in_features=128, out_features=32, bias=True)
              )
            )
          )
        )
        (2): ModuleList(
          (0): PreNorm(
            (norm): LayerNorm((32,), eps=1e-05, elementwise_affine=True)
            (fn): Attention(
              (to_qkv): Linear(in_features=32, out_features=384, bias=False)
              (to_out): Linear(in_features=128, out_features=32, bias=True)
              (dropout): Dropout(p=0.1, inplace=False)
            )
          )
          (1): PreNorm(
            (norm): LayerNorm((32,), eps=1e-05, elementwise_affine=True)
            (fn): FeedForward(
              (net): Sequential(
                (0): Linear(in_features=32, out_features=256, bias=True)
                (1): GEGLU()
                (2): Dropout(p=0.1, inplace=False)
                (3): Linear(in_features=128, out_features=32, bias=True)
              )
            )
          )
        )
        (3): ModuleList(
          (0): PreNorm(
            (norm): LayerNorm((32,), eps=1e-05, elementwise_affine=True)
            (fn): Attention(
              (to_qkv): Linear(in_features=32, out_features=384, bias=False)
              (to_out): Linear(in_features=128, out_features=32, bias=True)
              (dropout): Dropout(p=0.1, inplace=False)
            )
          )
          (1): PreNorm(
            (norm): LayerNorm((32,), eps=1e-05, elementwise_affine=True)
            (fn): FeedForward(
              (net): Sequential(
                (0): Linear(in_features=32, out_features=256, bias=True)
                (1): GEGLU()
                (2): Dropout(p=0.1, inplace=False)
                (3): Linear(in_features=128, out_features=32, bias=True)
              )
            )
          )
        )
        (4): ModuleList(
          (0): PreNorm(
            (norm): LayerNorm((32,), eps=1e-05, elementwise_affine=True)
            (fn): Attention(
              (to_qkv): Linear(in_features=32, out_features=384, bias=False)
              (to_out): Linear(in_features=128, out_features=32, bias=True)
              (dropout): Dropout(p=0.1, inplace=False)
            )
          )
          (1): PreNorm(
            (norm): LayerNorm((32,), eps=1e-05, elementwise_affine=True)
            (fn): FeedForward(
              (net): Sequential(
                (0): Linear(in_features=32, out_features=256, bias=True)
                (1): GEGLU()
                (2): Dropout(p=0.1, inplace=False)
                (3): Linear(in_features=128, out_features=32, bias=True)
              )
            )
          )
        )
        (5): ModuleList(
          (0): PreNorm(
            (norm): LayerNorm((32,), eps=1e-05, elementwise_affine=True)
            (fn): Attention(
              (to_qkv): Linear(in_features=32, out_features=384, bias=False)
              (to_out): Linear(in_features=128, out_features=32, bias=True)
              (dropout): Dropout(p=0.1, inplace=False)
            )
          )
          (1): PreNorm(
            (norm): LayerNorm((32,), eps=1e-05, elementwise_affine=True)
            (fn): FeedForward(
              (net): Sequential(
                (0): Linear(in_features=32, out_features=256, bias=True)
                (1): GEGLU()
                (2): Dropout(p=0.1, inplace=False)
                (3): Linear(in_features=128, out_features=32, bias=True)
              )
            )
          )
        )
      )
    )
    (mlp): MLP(
      (mlp): Sequential(
        (0): Linear(in_features=151, out_features=604, bias=True)
        (1): ReLU()
        (2): Linear(in_features=604, out_features=302, bias=True)
        (3): ReLU()
        (4): Linear(in_features=302, out_features=256, bias=True)
      )
    )
  )
  (classifier): Sequential(
    (0): Linear(in_features=256, out_features=64, bias=True)
    (1): Linear(in_features=64, out_features=2, bias=True)
  )
)
Total trainable pytorch params:0.543754 MB
Total pytorch params:0.543754 MB
----------
Train Epoch 0/99
Accuracy of the network on the  test images: 61.628 %


[[38 15]
 [18 15]]


SEN 45.45, SPE 71.70, ACC 61.63, F1 47.62, AUC 0.5809

Accuracy of the network on the  test images: 68.421 %


[[17  6]
 [ 6  9]]


SEN 60.00, SPE 73.91, ACC 68.42, F1 60.00, AUC 0.7261
…
SEN 85.71, SPE 75.00, ACC 77.78, F1 66.67, AUC 0.8571

-------------------
val best_auc: 0.8753623188405798
val best_acc: 89.47368421052632
val best_epoch: 28
-------------------
test auc: 0.8714285714285714
test acc: 85.18518518518519
-------------------
Namespace(Adiscription='BiomedCLIP + tabtransformer', base_lr=0.0005, batch_size=1, d_model=256, gpu='0', hidden_dim=64, init_lr=1e-07, lr_way='cos', model_mode='image', nclass=2, num_epochs=100, num_warmup=10, saveName='modality_ablation', savePath='log/modality_ablation', seed=3407, weight_decay=0.0005)
image_model(
  (atten_pool): FCN(
    (conv): Sequential(
      (0): Conv2d(768, 32, kernel_size=(3, 3), stride=(1, 1), padding=(1, 1))
      (1): Conv2d(32, 16, kernel_size=(3, 3), stride=(1, 1), padding=(1, 1))
      (2): Conv2d(16, 8, kernel_size=(3, 3), stride=(1, 1), padding=(1, 1))
      (3): Conv2d(8, 1, kernel_size=(3, 3), stride=(1, 1), padding=(1, 1))
    )
  )
  (conv3): Sequential(
    (0): Conv3d(768, 8, kernel_size=(4, 3, 3), stride=(1, 1, 1), padding=(1, 1, 1))
    (1): MaxPool3d(kernel_size=(4, 2, 2), stride=(4, 2, 2), padding=0, dilation=1, ceil_mode=False)
    (2): Conv3d(8, 256, kernel_size=(4, 3, 3), stride=(1, 1, 1), padding=(1, 1, 1))
    (3): MaxPool3d(kernel_size=(4, 2, 2), stride=(4, 2, 2), padding=0, dilation=1, ceil_mode=False)
  )
  (gap): AdaptiveAvgPool3d(output_size=(1, 1, 1))
  (classifier): Sequential(
    (0): Linear(in_features=256, out_features=64, bias=True)
    (1): Linear(in_features=64, out_features=64, bias=True)
    (2): Linear(in_features=64, out_features=64, bias=True)
    (3): Linear(in_features=64, out_features=2, bias=True)
  )
)
Total trainable pytorch params:0.5471469999999999 MB
Total pytorch params:0.5471469999999999 MB
----------
Train Epoch 0/99
Accuracy of the network on the  test images: 38.372 %


[[ 0 53]
 [ 0 33]]


SEN 100.00, SPE 0.00, ACC 38.37, F1 55.46, AUC 0.3951

Accuracy of the network on the  test images: 39.474 %


[[ 0 23]
 [ 0 15]]


SEN 100.00, SPE 0.00, ACC 39.47, F1 56.60, AUC 0.5942
…
SEN 42.86, SPE 80.00, ACC 70.37, F1 42.86, AUC 0.5857

-------------------
val best_auc: 0.6782608695652175
val best_acc: 63.1578947368421
val best_epoch: 38
-------------------
test auc: 0.6428571428571428
test acc: 74.07407407407408
-------------------
Namespace(Adiscription='BiomedCLIP + tabtransformer', base_lr=0.0005, batch_size=1, d_model=256, gpu='0', hidden_dim=64, init_lr=1e-07, lr_way='cos', model_mode='union', nclass=2, num_epochs=100, num_warmup=10, saveName='modality_ablation', savePath='log/modality_ablation', seed=3407, weight_decay=0.0005)
union_model(
  (tabular_transformer): TabTransformer(
    (category_embed): Embedding(11, 28)
    (norm): LayerNorm((23,), eps=1e-05, elementwise_affine=True)
    (transformer): Transformer(
      (layers): ModuleList(
        (0): ModuleList(
          (0): PreNorm(
            (norm): LayerNorm((32,), eps=1e-05, elementwise_affine=True)
            (fn): Attention(
              (to_qkv): Linear(in_features=32, out_features=384, bias=False)
              (to_out): Linear(in_features=128, out_features=32, bias=True)
              (dropout): Dropout(p=0.1, inplace=False)
            )
          )
          (1): PreNorm(
            (norm): LayerNorm((32,), eps=1e-05, elementwise_affine=True)
            (fn): FeedForward(
              (net): Sequential(
                (0): Linear(in_features=32, out_features=256, bias=True)
                (1): GEGLU()
                (2): Dropout(p=0.1, inplace=False)
                (3): Linear(in_features=128, out_features=32, bias=True)
              )
            )
          )
        )
        (1): ModuleList(
          (0): PreNorm(
            (norm): LayerNorm((32,), eps=1e-05, elementwise_affine=True)
            (fn): Attention(
              (to_qkv): Linear(in_features=32, out_features=384, bias=False)
              (to_out): Linear(in_features=128, out_features=32, bias=True)
              (dropout): Dropout(p=0.1, inplace=False)
            )
          )
          (1): PreNorm(
            (norm): LayerNorm((32,), eps=1e-05, elementwise_affine=True)
            (fn): FeedForward(
              (net): Sequential(
                (0): Linear(in_features=32, out_features=256, bias=True)
                (1): GEGLU()
                (2): Dropout(p=0.1, inplace=False)
                (3): Linear(in_features=128, out_features=32, bias=True)
              )
            )
          )
        )
        (2): ModuleList(
          (0): PreNorm(
            (norm): LayerNorm((32,), eps=1e-05, elementwise_affine=True)
            (fn): Attention(
              (to_qkv): Linear(in_features=32, out_features=384, bias=False)
              (to_out): Linear(in_features=128, out_features=32, bias=True)
              (dropout): Dropout(p=0.1, inplace=False)
            )
          )
          (1): PreNorm(
            (norm): LayerNorm((32,), eps=1e-05, elementwise_affine=True)
            (fn): FeedForward(
              (net): Sequential(
                (0): Linear(in_features=32, out_features=256, bias=True)
                (1): GEGLU()
                (2): Dropout(p=0.1, inplace=False)
                (3): Linear(in_features=128, out_features=32, bias=True)
              )
            )
          )
        )
        (3): ModuleList(
          (0): PreNorm(
            (norm): LayerNorm((32,), eps=1e-05, elementwise_affine=True)
            (fn): Attention(
              (to_qkv): Linear(in_features=32, out_features=384, bias=False)
              (to_out): Linear(in_features=128, out_features=32, bias=True)
              (dropout): Dropout(p=0.1, inplace=False)
            )
          )
          (1): PreNorm(
            (norm): LayerNorm((32,), eps=1e-05, elementwise_affine=True)
            (fn): FeedForward(
              (net): Sequential(
                (0): Linear(in_features=32, out_features=256, bias=True)
                (1): GEGLU()
                (2): Dropout(p=0.1, inplace=False)
                (3): Linear(in_features=128, out_features=32, bias=True)
              )
            )
          )
        )
        (4): ModuleList(
          (0): PreNorm(
            (norm): LayerNorm((32,), eps=1e-05, elementwise_affine=True)
            (fn): Attention(
              (to_qkv): Linear(in_features=32, out_features=384, bias=False)
              (to_out): Linear(in_features=128, out_features=32, bias=True)
              (dropout): Dropout(p=0.1, inplace=False)
            )
          )
          (1): PreNorm(
            (norm): LayerNorm((32,), eps=1e-05, elementwise_affine=True)
            (fn): FeedForward(
              (net): Sequential(
                (0): Linear(in_features=32, out_features=256, bias=True)
                (1): GEGLU()
                (2): Dropout(p=0.1, inplace=False)
                (3): Linear(in_features=128, out_features=32, bias=True)
              )
            )
          )
        )
        (5): ModuleList(
          (0): PreNorm(
            (norm): LayerNorm((32,), eps=1e-05, elementwise_affine=True)
            (fn): Attention(
              (to_qkv): Linear(in_features=32, out_features=384, bias=False)
              (to_out): Linear(in_features=128, out_features=32, bias=True)
              (dropout): Dropout(p=0.1, inplace=False)
            )
          )
          (1): PreNorm(
            (norm): LayerNorm((32,), eps=1e-05, elementwise_affine=True)
            (fn): FeedForward(
              (net): Sequential(
                (0): Linear(in_features=32, out_features=256, bias=True)
                (1): GEGLU()
                (2): Dropout(p=0.1, inplace=False)
                (3): Linear(in_features=128, out_features=32, bias=True)
              )
            )
          )
        )
      )
    )
    (mlp): MLP(
      (mlp): Sequential(
        (0): Linear(in_features=151, out_features=604, bias=True)
        (1): ReLU()
        (2): Linear(in_features=604, out_features=302, bias=True)
        (3): ReLU()
        (4): Linear(in_features=302, out_features=256, bias=True)
      )
    )
  )
  (atten_pool): FCN(
    (conv): Sequential(
      (0): Conv2d(768, 32, kernel_size=(3, 3), stride=(1, 1), padding=(1, 1))
      (1): Conv2d(32, 16, kernel_size=(3, 3), stride=(1, 1), padding=(1, 1))
      (2): Conv2d(16, 8, kernel_size=(3, 3), stride=(1, 1), padding=(1, 1))
      (3): Conv2d(8, 1, kernel_size=(3, 3), stride=(1, 1), padding=(1, 1))
    )
  )
  (conv3): Sequential(
    (0): Conv3d(768, 8, kernel_size=(4, 3, 3), stride=(1, 1, 1), padding=(1, 1, 1))
    (1): MaxPool3d(kernel_size=(4, 2, 2), stride=(4, 2, 2), padding=0, dilation=1, ceil_mode=False)
    (2): Conv3d(8, 256, kernel_size=(4, 3, 3), stride=(1, 1, 1), padding=(1, 1, 1))
    (3): MaxPool3d(kernel_size=(4, 2, 2), stride=(4, 2, 2), padding=0, dilation=1, ceil_mode=False)
  )
  (gap): AdaptiveAvgPool3d(output_size=(1, 1, 1))
  (classifier): Linear(in_features=512, out_features=2, bias=True)
  (fusion): MMTM(
    (fc_squeeze): Linear(in_features=512, out_features=1024, bias=True)
    (fc_visual): Linear(in_features=1024, out_features=256, bias=True)
    (fc_skeleton): Linear(in_features=1024, out_features=256, bias=True)
    (relu): ReLU()
    (sigmoid): Sigmoid()
  )
)
Total trainable pytorch params:2.1005629999999997 MB
Total pytorch params:2.1005629999999997 MB
----------
Train Epoch 0/99
Accuracy of the network on the  test images: 47.674 %


[[16 37]
 [ 8 25]]


SEN 75.76, SPE 30.19, ACC 47.67, F1 52.63, AUC 0.4734

Accuracy of the network on the  test images: 39.474 %
…
