Namespace(Adiscription='BiomedCLIP + tabtransformer', base_lr=0.0005, batch_size=1, d_model=256, gpu='0', hidden_dim=64, init_lr=1e-07, lr_way='cos', model_mode='union', nclass=2, num_epochs=100, num_warmup=10, saveName='no_strategy', savePath='log/no_strategy', seed=3407, weight_decay=0.0005)
union_model(
  (tabular_transformer): TabTransformer(
    (category_embed): Embedding(11, 28)
    (norm): LayerNorm((23,), eps=1e-05, elementwise_affine=True)
    (transformer): Transformer(
      (layers): ModuleList(
        (0): ModuleList(
          (0): PreNorm(
            (norm): LayerNorm((32,), eps=1e-05, elementwise_affine=True)
            (fn): Attention(
              (to_qkv): Linear(in_features=32, out_features=384, bias=False)
              (to_out): Linear(in_features=128, out_features=32, bias=True)
              (dropout): Dropout(p=0.1, inplace=False)
            )
          )
          (1): PreNorm(
            (norm): LayerNorm((32,), eps=1e-05, elementwise_affine=True)
            (fn): FeedForward(
              (net): Sequential(
                (0): Linear(in_features=32, out_features=256, bias=True)
                (1): GEGLU()
                (2): Dropout(p=0.1, inplace=False)
                (3): Linear(in_features=128, out_features=32, bias=True)
              )
            )
          )
        )
        (1): ModuleList(
          (0): PreNorm(
            (norm): LayerNorm((32,), eps=1e-05, elementwise_affine=True)
            (fn): Attention(
              (to_qkv): Linear(in_features=32, out_features=384, bias=False)
              (to_out): Linear(in_features=128, out_features=32, bias=True)
              (dropout): Dropout(p=0.1, inplace=False)
            )
          )
          (1): PreNorm(
            (norm): LayerNorm((32,), eps=1e-05, elementwise_affine=True)
            (fn): FeedForward(
              (net): Sequential(
                (0): Linear(in_features=32, out_features=256, bias=True)
                (1): GEGLU()
                (2): Dropout(p=0.1, inplace=False)
                (3): Linear(in_features=128, out_features=32, bias=True)
              )
            )
          )
        )
        (2): ModuleList(
          (0): PreNorm(
            (norm): LayerNorm((32,), eps=1e-05, elementwise_affine=True)
            (fn): Attention(
              (to_qkv): Linear(in_features=32, out_features=384, bias=False)
              (to_out): Linear(in_features=128, out_features=32, bias=True)
              (dropout): Dropout(p=0.1, inplace=False)
            )
          )
          (1): PreNorm(
            (norm): LayerNorm((32,), eps=1e-05, elementwise_affine=True)
            (fn): FeedForward(
              (net): Sequential(
                (0): Linear(in_features=32, out_features=256, bias=True)
                (1): GEGLU()
                (2): Dropout(p=0.1, inplace=False)
                (3): Linear(in_features=128, out_features=32, bias=True)
              )
            )
          )
        )
        (3): ModuleList(
          (0): PreNorm(
            (norm): LayerNorm((32,), eps=1e-05, elementwise_affine=True)
            (fn): Attention(
              (to_qkv): Linear(in_features=32, out_features=384, bias=False)
              (to_out): Linear(in_features=128, out_features=32, bias=True)
              (dropout): Dropout(p=0.1, inplace=False)
            )
          )
          (1): PreNorm(
            (norm): LayerNorm((32,), eps=1e-05, elementwise_affine=True)
            (fn): FeedForward(
              (net): Sequential(
                (0): Linear(in_features=32, out_features=256, bias=True)
                (1): GEGLU()
                (2): Dropout(p=0.1, inplace=False)
                (3): Linear(in_features=128, out_features=32, bias=True)
              )
            )
          )
        )
        (4): ModuleList(
          (0): PreNorm(
            (norm): LayerNorm((32,), eps=1e-05, elementwise_affine=True)
            (fn): Attention(
              (to_qkv): Linear(in_features=32, out_features=384, bias=False)
              (to_out): Linear(in_features=128, out_features=32, bias=True)
              (dropout): Dropout(p=0.1, inplace=False)
            )
          )
          (1): PreNorm(
            (norm): LayerNorm((32,), eps=1e-05, elementwise_affine=True)
            (fn): FeedForward(
              (net): Sequential(
                (0): Linear(in_features=32, out_features=256, bias=True)
                (1): GEGLU()
                (2): Dropout(p=0.1, inplace=False)
                (3): Linear(in_features=128, out_features=32, bias=True)
              )
            )
          )
        )
        (5): ModuleList(
          (0): PreNorm(
            (norm): LayerNorm((32,), eps=1e-05, elementwise_affine=True)
            (fn): Attention(
              (to_qkv): Linear(in_features=32, out_features=384, bias=False)
              (to_out): Linear(in_features=128, out_features=32, bias=True)
              (dropout): Dropout(p=0.1, inplace=False)
            )
          )
          (1): PreNorm(
            (norm): LayerNorm((32,), eps=1e-05, elementwise_affine=True)
            (fn): FeedForward(
              (net): Sequential(
                (0): Linear(in_features=32, out_features=256, bias=True)
                (1): GEGLU()
                (2): Dropout(p=0.1, inplace=False)
                (3): Linear(in_features=128, out_features=32, bias=True)
              )
            )
          )
        )
      )
    )
    (mlp): MLP(
      (mlp): Sequential(
        (0): Linear(in_features=151, out_features=604, bias=True)
        (1): ReLU()
        (2): Linear(in_features=604, out_features=302, bias=True)
        (3): ReLU()
        (4): Linear(in_features=302, out_features=256, bias=True)
      )
    )
  )
  (atten_pool): FCN(
    (conv): Sequential(
      (0): Conv2d(768, 32, kernel_size=(3, 3), stride=(1, 1), padding=(1, 1))
      (1): Conv2d(32, 16, kernel_size=(3, 3), stride=(1, 1), padding=(1, 1))
      (2): Conv2d(16, 8, kernel_size=(3, 3), stride=(1, 1), padding=(1, 1))
      (3): Conv2d(8, 1, kernel_size=(3, 3), stride=(1, 1), padding=(1, 1))
    )
  )
  (conv3): Sequential(
    (0): Conv3d(768, 8, kernel_size=(4, 3, 3), stride=(1, 1, 1), padding=(1, 1, 1))
    (1): MaxPool3d(kernel_size=(4, 2, 2), stride=(4, 2, 2), padding=0, dilation=1, ceil_mode=False)
    (2): Conv3d(8, 256, kernel_size=(4, 3, 3), stride=(1, 1, 1), padding=(1, 1, 1))
    (3): MaxPool3d(kernel_size=(4, 2, 2), stride=(4, 2, 2), padding=0, dilation=1, ceil_mode=False)
  )
  (gap): AdaptiveAvgPool3d(output_size=(1, 1, 1))
  (classifier): Linear(in_features=512, out_features=2, bias=True)
  (fusion): MMTM(
    (fc_squeeze): Linear(in_features=512, out_features=1024, bias=True)
    (fc_visual): Linear(in_features=1024, out_features=256, bias=True)
    (fc_skeleton): Linear(in_features=1024, out_features=256, bias=True)
    (relu): ReLU()
    (sigmoid): Sigmoid()
  )
)
Total trainable pytorch params:2.1005629999999997 MB
Total pytorch params:2.1005629999999997 MB
----------
Train Epoch 0/99
Accuracy of the network on the  test images: 48.837 %


[[17 36]
 [ 8 25]]


SEN 75.76, SPE 32.08, ACC 48.84, F1 53.19, AUC 0.4746

Accuracy of the network on the  test images: 39.474 %
…
