Namespace(Adiscription='BiomedCLIP + tabtransformer', base_lr=0.0005, batch_size=1, d_model=256, gpu='0', hidden_dim=64, init_lr=1e-07, lr_way='cos', model_mode='add', nclass=2, num_epochs=100, num_warmup=10, saveName='fusion_ablation', savePath='log/fusion_ablation', seed=3407, weight_decay=0.0005)
union_model_add(
  (tabular_transformer): TabTransformer(
    (category_embed): Embedding(11, 28)
    (norm): LayerNorm((23,), eps=1e-05, elementwise_affine=True)
    (transformer): Transformer(
      (layers): ModuleList(
        (0): ModuleList(
          (0): PreNorm(
            (norm): LayerNorm((32,), eps=1e-05, elementwise_affine=True)
            (fn): Attention(
              (to_qkv): Linear(in_features=32, out_features=384, bias=False)
              (to_out): Linear(in_features=128, out_features=32, bias=True)
              (dropout): Dropout(p=0.1, inplace=False)
            )
          )
          (1): PreNorm(
            (norm): LayerNorm((32,), eps=1e-05, elementwise_affine=True)
            (fn): FeedForward(
              (net): Sequential(
                (0): Linear(in_features=32, out_features=256, bias=True)
                (1): GEGLU()
                (2): Dropout(p=0.1, inplace=False)
                (3): Linear(in_features=128, out_features=32, bias=True)
              )
            )
          )
        )
        (1): ModuleList(
          (0): PreNorm(
            (norm): LayerNorm((32,), eps=1e-05, elementwise_affine=True)
            (fn): Attention(
              (to_qkv): Linear(in_features=32, out_features=384, bias=False)
              (to_out): Linear(in_features=128, out_features=32, bias=True)
              (dropout): Dropout(p=0.1, inplace=False)
            )
          )
          (1): PreNorm(
            (norm): LayerNorm((32,), eps=1e-05, elementwise_affine=True)
            (fn): FeedForward(
              (net): Sequential(
                (0): Linear(in_features=32, out_features=256, bias=True)
                (1): GEGLU()
                (2): Dropout(p=0.1, inplace=False)
                (3): Linear(in_features=128, out_features=32, bias=True)
              )
            )
          )
        )
        (2): ModuleList(
          (0): PreNorm(
            (norm): LayerNorm((32,), eps=1e-05, elementwise_affine=True)
            (fn): Attention(
              (to_qkv): Linear(in_features=32, out_features=384, bias=False)
              (to_out): Linear(in_features=128, out_features=32, bias=True)
              (dropout): Dropout(p=0.1, inplace=False)
            )
          )
          (1): PreNorm(
            (norm): LayerNorm((32,), eps=1e-05, elementwise_affine=True)
            (fn): FeedForward(
              (net): Sequential(
                (0): Linear(in_features=32, out_features=256, bias=True)
                (1): GEGLU()
                (2): Dropout(p=0.1, inplace=False)
                (3): Linear(in_features=128, out_features=32, bias=True)
              )
            )
          )
        )
        (3): ModuleList(
          (0): PreNorm(
            (norm): LayerNorm((32,), eps=1e-05, elementwise_affine=True)
            (fn): Attention(
              (to_qkv): Linear(in_features=32, out_features=384, bias=False)
              (to_out): Linear(in_features=128, out_features=32, bias=True)
              (dropout): Dropout(p=0.1, inplace=False)
            )
          )
          (1): PreNorm(
            (norm): LayerNorm((32,), eps=1e-05, elementwise_affine=True)
            (fn): FeedForward(
              (net): Sequential(
                (0): Linear(in_features=32, out_features=256, bias=True)
                (1): GEGLU()
                (2): Dropout(p=0.1, inplace=False)
                (3): Linear(in_features=128, out_features=32, bias=True)
              )
            )
          )
        )
        (4): ModuleList(
          (0): PreNorm(
            (norm): LayerNorm((32,), eps=1e-05, elementwise_affine=True)
            (fn): Attention(
              (to_qkv): Linear(in_features=32, out_features=384, bias=False)
              (to_out): Linear(in_features=128, out_features=32, bias=True)
              (dropout): Dropout(p=0.1, inplace=False)
            )
          )
          (1): PreNorm(
            (norm): LayerNorm((32,), eps=1e-05, elementwise_affine=True)
            (fn): FeedForward(
              (net): Sequential(
                (0): Linear(in_features=32, out_features=256, bias=True)
                (1): GEGLU()
                (2): Dropout(p=0.1, inplace=False)
                (3): Linear(in_features=128, out_features=32, bias=True)
              )
            )
          )
        )
        (5): ModuleList(
          (0): PreNorm(
            (norm): LayerNorm((32,), eps=1e-05, elementwise_affine=True)
            (fn): Attention(
              (to_qkv): Linear(in_features=32, out_features=384, bias=False)
              (to_out): Linear(in_features=128, out_features=32, bias=True)
              (dropout): Dropout(p=0.1, inplace=False)
            )
          )
          (1): PreNorm(
            (norm): LayerNorm((32,), eps=1e-05, elementwise_affine=True)
            (fn): FeedForward(
              (net): Sequential(
                (0): Linear(in_features=32, out_features=256, bias=True)
                (1): GEGLU()
                (2): Dropout(p=0.1, inplace=False)
                (3): Linear(in_features=128, out_features=32, bias=True)
              )
            )
          )
        )
      )
    )
    (mlp): MLP(
      (mlp): Sequential(
        (0): Linear(in_features=151, out_features=604, bias=True)
        (1): ReLU()
        (2): Linear(in_features=604, out_features=302, bias=True)
        (3): ReLU()
        (4): Linear(in_features=302, out_features=256, bias=True)
      )
    )
  )
  (atten_pool): FCN(
    (conv): Sequential(
      (0): Conv2d(768, 32, kernel_size=(3, 3), stride=(1, 1), padding=(1, 1))
      (1): Conv2d(32, 16, kernel_size=(3, 3), stride=(1, 1), padding=(1, 1))
      (2): Conv2d(16, 8, kernel_size=(3, 3), stride=(1, 1), padding=(1, 1))
      (3): Conv2d(8, 1, kernel_size=(3, 3), stride=(1, 1), padding=(1, 1))
    )
  )
  (conv3): Sequential(
    (0): Conv3d(768, 8, kernel_size=(4, 3, 3), stride=(1, 1, 1), padding=(1, 1, 1))
    (1): MaxPool3d(kernel_size=(4, 2, 2), stride=(4, 2, 2), padding=0, dilation=1, ceil_mode=False)
    (2): Conv3d(8, 256, kernel_size=(4, 3, 3), stride=(1, 1, 1), padding=(1, 1, 1))
    (3): MaxPool3d(kernel_size=(4, 2, 2), stride=(4, 2, 2), padding=0, dilation=1, ceil_mode=False)
  )
  (gap): AdaptiveAvgPool3d(output_size=(1, 1, 1))
  (classifier): Linear(in_features=256, out_features=2, bias=True)
)
Total trainable pytorch params:1.049939 MB
Total pytorch params:1.049939 MB
----------
Train Epoch 0/99
Accuracy of the network on the  test images: 48.837 %


[[29 24]
 [20 13]]


SEN 39.39, SPE 54.72, ACC 48.84, F1 37.14, AUC 0.5152

Accuracy of the network on the  test images: 34.211 %


[[ 8 15]
 [10  5]]


SEN 33.33, SPE 34.78, ACC 34.21, F1 28.57, AUC 0.3420
…
SEN 57.14, SPE 65.00, ACC 62.96, F1 44.44, AUC 0.7929

-------------------
val best_auc: 0.9072463768115943
val best_acc: 92.10526315789474
val best_epoch: 78
-------------------
test auc: 0.7785714285714286
test acc: 70.37037037037037
-------------------
Namespace(Adiscription='BiomedCLIP + tabtransformer', base_lr=0.0005, batch_size=1, d_model=256, gpu='0', hidden_dim=64, init_lr=1e-07, lr_way='cos', model_mode='concat', nclass=2, num_epochs=100, num_warmup=10, saveName='fusion_ablation', savePath='log/fusion_ablation', seed=3407, weight_decay=0.0005)
union_model_concat(
  (tabular_transformer): TabTransformer(
    (category_embed): Embedding(11, 28)
    (norm): LayerNorm((23,), eps=1e-05, elementwise_affine=True)
    (transformer): Transformer(
      (layers): ModuleList(
        (0): ModuleList(
          (0): PreNorm(
            (norm): LayerNorm((32,), eps=1e-05, elementwise_affine=True)
            (fn): Attention(
              (to_qkv): Linear(in_features=32, out_features=384, bias=False)
              (to_out): Linear(in_features=128, out_features=32, bias=True)
              (dropout): Dropout(p=0.1, inplace=False)
            )
          )
          (1): PreNorm(
            (norm): LayerNorm((32,), eps=1e-05, elementwise_affine=True)
            (fn): FeedForward(
              (net): Sequential(
                (0): Linear(in_features=32, out_features=256, bias=True)
                (1): GEGLU()
                (2): Dropout(p=0.1, inplace=False)
                (3): Linear(in_features=128, out_features=32, bias=True)
              )
            )
          )
        )
        (1): ModuleList(
          (0): PreNorm(
            (norm): LayerNorm((32,), eps=1e-05, elementwise_affine=True)
            (fn): Attention(
              (to_qkv): Linear(in_features=32, out_features=384, bias=False)
              (to_out): Linear(in_features=128, out_features=32, bias=True)
              (dropout): Dropout(p=0.1, inplace=False)
            )
          )
          (1): PreNorm(
            (norm): LayerNorm((32,), eps=1e-05, elementwise_affine=True)
            (fn): FeedForward(
              (net): Sequential(
                (0): Linear(in_features=32, out_features=256, bias=True)
                (1): GEGLU()
                (2): Dropout(p=0.1, inplace=False)
                (3): Linear(in_features=128, out_features=32, bias=True)
              )
            )
          )
        )
        (2): ModuleList(
          (0): PreNorm(
            (norm): LayerNorm((32,), eps=1e-05, elementwise_affine=True)
            (fn): Attention(
              (to_qkv): Linear(in_features=32, out_features=384, bias=False)
              (to_out): Linear(in_features=128, out_features=32, bias=True)
              (dropout): Dropout(p=0.1, inplace=False)
            )
          )
          (1): PreNorm(
            (norm): LayerNorm((32,), eps=1e-05, elementwise_affine=True)
            (fn): FeedForward(
              (net): Sequential(
                (0): Linear(in_features=32, out_features=256, bias=True)
                (1): GEGLU()
                (2): Dropout(p=0.1, inplace=False)
                (3): Linear(in_features=128, out_features=32, bias=True)
              )
            )
          )
        )
        (3): ModuleList(
          (0): PreNorm(
            (norm): LayerNorm((32,), eps=1e-05, elementwise_affine=True)
            (fn): Attention(
              (to_qkv): Linear(in_features=32, out_features=384, bias=False)
              (to_out): Linear(in_features=128, out_features=32, bias=True)
              (dropout): Dropout(p=0.1, inplace=False)
            )
          )
          (1): PreNorm(
            (norm): LayerNorm((32,), eps=1e-05, elementwise_affine=True)
            (fn): FeedForward(
              (net): Sequential(
                (0): Linear(in_features=32, out_features=256, bias=True)
                (1): GEGLU()
                (2): Dropout(p=0.1, inplace=False)
                (3): Linear(in_features=128, out_features=32, bias=True)
              )
            )
          )
        )
        (4): ModuleList(
          (0): PreNorm(
            (norm): LayerNorm((32,), eps=1e-05, elementwise_affine=True)
            (fn): Attention(
              (to_qkv): Linear(in_features=32, out_features=384, bias=False)
              (to_out): Linear(in_features=128, out_features=32, bias=True)
              (dropout): Dropout(p=0.1, inplace=False)
            )
          )
          (1): PreNorm(
            (norm): LayerNorm((32,), eps=1e-05, elementwise_affine=True)
            (fn): FeedForward(
              (net): Sequential(
                (0): Linear(in_features=32, out_features=256, bias=True)
                (1): GEGLU()
                (2): Dropout(p=0.1, inplace=False)
                (3): Linear(in_features=128, out_features=32, bias=True)
              )
            )
          )
        )
        (5): ModuleList(
          (0): PreNorm(
            (norm): LayerNorm((32,), eps=1e-05, elementwise_affine=True)
            (fn): Attention(
              (to_qkv): Linear(in_features=32, out_features=384, bias=False)
              (to_out): Linear(in_features=128, out_features=32, bias=True)
              (dropout): Dropout(p=0.1, inplace=False)
            )
          )
          (1): PreNorm(
            (norm): LayerNorm((32,), eps=1e-05, elementwise_affine=True)
            (fn): FeedForward(
              (net): Sequential(
                (0): Linear(in_features=32, out_features=256, bias=True)
                (1): GEGLU()
                (2): Dropout(p=0.1, inplace=False)
                (3): Linear(in_features=128, out_features=32, bias=True)
              )
            )
          )
        )
      )
    )
    (mlp): MLP(
      (mlp): Sequential(
        (0): Linear(in_features=151, out_features=604, bias=True)
        (1): ReLU()
        (2): Linear(in_features=604, out_features=302, bias=True)
        (3): ReLU()
        (4): Linear(in_features=302, out_features=256, bias=True)
      )
    )
  )
  (atten_pool): FCN(
    (conv): Sequential(
      (0): Conv2d(768, 32, kernel_size=(3, 3), stride=(1, 1), padding=(1, 1))
      (1): Conv2d(32, 16, kernel_size=(3, 3), stride=(1, 1), padding=(1, 1))
      (2): Conv2d(16, 8, kernel_size=(3, 3), stride=(1, 1), padding=(1, 1))
      (3): Conv2d(8, 1, kernel_size=(3, 3), stride=(1, 1), padding=(1, 1))
    )
  )
  (conv3): Sequential(
    (0): Conv3d(768, 8, kernel_size=(4, 3, 3), stride=(1, 1, 1), padding=(1, 1, 1))
    (1): MaxPool3d(kernel_size=(4, 2, 2), stride=(4, 2, 2), padding=0, dilation=1, ceil_mode=False)
    (2): Conv3d(8, 256, kernel_size=(4, 3, 3), stride=(1, 1, 1), padding=(1, 1, 1))
    (3): MaxPool3d(kernel_size=(4, 2, 2), stride=(4, 2, 2), padding=0, dilation=1, ceil_mode=False)
  )
  (gap): AdaptiveAvgPool3d(output_size=(1, 1, 1))
  (classifier): Linear(in_features=512, out_features=2, bias=True)
)
Total trainable pytorch params:1.050451 MB
Total pytorch params:1.050451 MB
----------
Train Epoch 0/99
Accuracy of the network on the  test images: 47.674 %


[[16 37]
 [ 8 25]]


SEN 75.76, SPE 30.19, ACC 47.67, F1 52.63, AUC 0.4671

Accuracy of the network on the  test images: 36.842 %


[[ 8 15]
 [ 9  6]]


SEN 40.00, SPE 34.78, ACC 36.84, F1 33.33, AUC 0.3609
…
SEN 85.71, SPE 80.00, ACC 81.48, F1 70.59, AUC 0.8179

-------------------
val best_auc: 0.8666666666666667
val best_acc: 81.57894736842105
val best_epoch: 40
-------------------
test auc: 0.8142857142857143
test acc: 85.18518518518519
-------------------
Namespace(Adiscription='BiomedCLIP + tabtransformer', base_lr=0.0005, batch_size=1, d_model=256, gpu='0', hidden_dim=64, init_lr=1e-07, lr_way='cos', model_mode='gated', nclass=2, num_epochs=100, num_warmup=10, saveName='fusion_ablation', savePath='log/fusion_ablation', seed=3407, weight_decay=0.0005)
union_model_gated(
  (tabular_transformer): TabTransformer(
    (category_embed): Embedding(11, 28)
    (norm): LayerNorm((23,), eps=1e-05, elementwise_affine=True)
    (transformer): Transformer(
      (layers): ModuleList(
        (0): ModuleList(
          (0): PreNorm(
            (norm): LayerNorm((32,), eps=1e-05, elementwise_affine=True)
            (fn): Attention(
              (to_qkv): Linear(in_features=32, out_features=384, bias=False)
              (to_out): Linear(in_features=128, out_features=32, bias=True)
              (dropout): Dropout(p=0.1, inplace=False)
            )
          )
          (1): PreNorm(
            (norm): LayerNorm((32,), eps=1e-05, elementwise_affine=True)
            (fn): FeedForward(
              (net): Sequential(
                (0): Linear(in_features=32, out_features=256, bias=True)
                (1): GEGLU()
                (2): Dropout(p=0.1, inplace=False)
                (3): Linear(in_features=128, out_features=32, bias=True)
              )
            )
          )
        )
        (1): ModuleList(
          (0): PreNorm(
            (norm): LayerNorm((32,), eps=1e-05, elementwise_affine=True)
            (fn): Attention(
              (to_qkv): Linear(in_features=32, out_features=384, bias=False)
              (to_out): Linear(in_features=128, out_features=32, bias=True)
              (dropout): Dropout(p=0.1, inplace=False)
            )
          )
          (1): PreNorm(
            (norm): LayerNorm((32,), eps=1e-05, elementwise_affine=True)
            (fn): FeedForward(
              (net): Sequential(
                (0): Linear(in_features=32, out_features=256, bias=True)
                (1): GEGLU()
                (2): Dropout(p=0.1, inplace=False)
                (3): Linear(in_features=128, out_features=32, bias=True)
              )
            )
          )
        )
        (2): ModuleList(
          (0): PreNorm(
            (norm): LayerNorm((32,), eps=1e-05, elementwise_affine=True)
            (fn): Attention(
              (to_qkv): Linear(in_features=32, out_features=384, bias=False)
              (to_out): Linear(in_features=128, out_features=32, bias=True)
              (dropout): Dropout(p=0.1, inplace=False)
            )
          )
          (1): PreNorm(
            (norm): LayerNorm((32,), eps=1e-05, elementwise_affine=True)
            (fn): FeedForward(
              (net): Sequential(
                (0): Linear(in_features=32, out_features=256, bias=True)
                (1): GEGLU()
                (2): Dropout(p=0.1, inplace=False)
                (3): Linear(in_features=128, out_features=32, bias=True)
              )
            )
          )
        )
        (3): ModuleList(
          (0): PreNorm(
            (norm): LayerNorm((32,), eps=1e-05, elementwise_affine=True)
            (fn): Attention(
              (to_qkv): Linear(in_features=32, out_features=384, bias=False)
              (to_out): Linear(in_features=128, out_features=32, bias=True)
              (dropout): Dropout(p=0.1, inplace=False)
            )
          )
          (1): PreNorm(
            (norm): LayerNorm((32,), eps=1e-05, elementwise_affine=True)
            (fn): FeedForward(
              (net): Sequential(
                (0): Linear(in_features=32, out_features=256, bias=True)
                (1): GEGLU()
                (2): Dropout(p=0.1, inplace=False)
                (3): Linear(in_features=128, out_features=32, bias=True)
              )
            )
          )
        )
        (4): ModuleList(
          (0): PreNorm(
            (norm): LayerNorm((32,), eps=1e-05, elementwise_affine=True)
            (fn): Attention(
              (to_qkv): Linear(in_features=32, out_features=384, bias=False)
              (to_out): Linear(in_features=128, out_features=32, bias=True)
              (dropout): Dropout(p=0.1, inplace=False)
            )
          )
          (1): PreNorm(
            (norm): LayerNorm((32,), eps=1e-05, elementwise_affine=True)
            (fn): FeedForward(
              (net): Sequential(
                (0): Linear(in_features=32, out_features=256, bias=True)
                (1): GEGLU()
                (2): Dropout(p=0.1, inplace=False)
                (3): Linear(in_features=128, out_features=32, bias=True)
              )
            )
          )
        )
        (5): ModuleList(
          (0): PreNorm(
            (norm): LayerNorm((32,), eps=1e-05, elementwise_affine=True)
            (fn): Attention(
              (to_qkv): Linear(in_features=32, out_features=384, bias=False)
              (to_out): Linear(in_features=128, out_features=32, bias=True)
              (dropout): Dropout(p=0.1, inplace=False)
            )
          )
          (1): PreNorm(
            (norm): LayerNorm((32,), eps=1e-05, elementwise_affine=True)
            (fn): FeedForward(
              (net): Sequential(
                (0): Linear(in_features=32, out_features=256, bias=True)
                (1): GEGLU()
                (2): Dropout(p=0.1, inplace=False)
                (3): Linear(in_features=128, out_features=32, bias=True)
              )
            )
          )
        )
      )
    )
    (mlp): MLP(
      (mlp): Sequential(
        (0): Linear(in_features=151, out_features=604, bias=True)
        (1): ReLU()
        (2): Linear(in_features=604, out_features=302, bias=True)
        (3): ReLU()
        (4): Linear(in_features=302, out_features=256, bias=True)
      )
    )
  )
  (atten_pool): FCN(
    (conv): Sequential(
      (0): Conv2d(768, 32, kernel_size=(3, 3), stride=(1, 1), padding=(1, 1))
      (1): Conv2d(32, 16, kernel_size=(3, 3), stride=(1, 1), padding=(1, 1))
      (2): Conv2d(16, 8, kernel_size=(3, 3), stride=(1, 1), padding=(1, 1))
      (3): Conv2d(8, 1, kernel_size=(3, 3), stride=(1, 1), padding=(1, 1))
    )
  )
  (conv3): Sequential(
    (0): Conv3d(768, 8, kernel_size=(4, 3, 3), stride=(1, 1, 1), padding=(1, 1, 1))
    (1): MaxPool3d(kernel_size=(4, 2, 2), stride=(4, 2, 2), padding=0, dilation=1, ceil_mode=False)
    (2): Conv3d(8, 256, kernel_size=(4, 3, 3), stride=(1, 1, 1), padding=(1, 1, 1))
    (3): MaxPool3d(kernel_size=(4, 2, 2), stride=(4, 2, 2), padding=0, dilation=1, ceil_mode=False)
  )
  (gap): AdaptiveAvgPool3d(output_size=(1, 1, 1))
  (fusion): GatedFusion(
    (fc_x): Linear(in_features=256, out_features=256, bias=True)
    (fc_y): Linear(in_features=256, out_features=256, bias=True)
    (fc_out): Linear(in_features=256, out_features=256, bias=True)
    (sigmoid): Sigmoid()
  )
  (classifier): Linear(in_features=256, out_features=2, bias=True)
)
Total trainable pytorch params:1.247315 MB
Total pytorch params:1.247315 MB
----------
Train Epoch 0/99
Accuracy of the network on the  test images: 61.628 %


[[53  0]
 [33  0]]


SEN 0.00, SPE 100.00, ACC 61.63, F1 0.00, AUC 0.4197

Accuracy of the network on the  test images: 60.526 %


[[23  0]
 [15  0]]


SEN 0.00, SPE 100.00, ACC 60.53, F1 0.00, AUC 0.2812
…
SEN 85.71, SPE 75.00, ACC 77.78, F1 66.67, AUC 0.8607

-------------------
val best_auc: 0.9043478260869566
val best_acc: 89.47368421052632
val best_epoch: 99
-------------------
test auc: 0.8607142857142858
test acc: 77.77777777777779
-------------------
Namespace(Adiscription='BiomedCLIP + tabtransformer', base_lr=0.0005, batch_size=1, d_model=256, gpu='0', hidden_dim=64, init_lr=1e-07, lr_way='cos', model_mode='film', nclass=2, num_epochs=100, num_warmup=10, saveName='fusion_ablation', savePath='log/fusion_ablation', seed=3407, weight_decay=0.0005)
union_model_Film(
  (tabular_transformer): TabTransformer(
    (category_embed): Embedding(11, 28)
    (norm): LayerNorm((23,), eps=1e-05, elementwise_affine=True)
    (transformer): Transformer(
      (layers): ModuleList(
        (0): ModuleList(
          (0): PreNorm(
            (norm): LayerNorm((32,), eps=1e-05, elementwise_affine=True)
            (fn): Attention(
              (to_qkv): Linear(in_features=32, out_features=384, bias=False)
              (to_out): Linear(in_features=128, out_features=32, bias=True)
              (dropout): Dropout(p=0.1, inplace=False)
            )
          )
          (1): PreNorm(
            (norm): LayerNorm((32,), eps=1e-05, elementwise_affine=True)
            (fn): FeedForward(
              (net): Sequential(
                (0): Linear(in_features=32, out_features=256, bias=True)
                (1): GEGLU()
                (2): Dropout(p=0.1, inplace=False)
                (3): Linear(in_features=128, out_features=32, bias=True)
              )
            )
          )
        )
        (1): ModuleList(
          (0): PreNorm(
            (norm): LayerNorm((32,), eps=1e-05, elementwise_affine=True)
            (fn): Attention(
              (to_qkv): Linear(in_features=32, out_features=384, bias=False)
              (to_out): Linear(in_features=128, out_features=32, bias=True)
              (dropout): Dropout(p=0.1, inplace=False)
            )
          )
          (1): PreNorm(
            (norm): LayerNorm((32,), eps=1e-05, elementwise_affine=True)
            (fn): FeedForward(
              (net): Sequential(
                (0): Linear(in_features=32, out_features=256, bias=True)
                (1): GEGLU()
                (2): Dropout(p=0.1, inplace=False)
                (3): Linear(in_features=128, out_features=32, bias=True)
              )
            )
          )
        )
        (2): ModuleList(
          (0): PreNorm(
            (norm): LayerNorm((32,), eps=1e-05, elementwise_affine=True)
            (fn): Attention(
              (to_qkv): Linear(in_features=32, out_features=384, bias=False)
              (to_out): Linear(in_features=128, out_features=32, bias=True)
              (dropout): Dropout(p=0.1, inplace=False)
            )
          )
          (1): PreNorm(
            (norm): LayerNorm((32,), eps=1e-05, elementwise_affine=True)
            (fn): FeedForward(
              (net): Sequential(
                (0): Linear(in_features=32, out_features=256, bias=True)
                (1): GEGLU()
                (2): Dropout(p=0.1, inplace=False)
                (3): Linear(in_features=128, out_features=32, bias=True)
              )
            )
          )
        )
        (3): ModuleList(
          (0): PreNorm(
            (norm): LayerNorm((32,), eps=1e-05, elementwise_affine=True)
            (fn): Attention(
              (to_qkv): Linear(in_features=32, out_features=384, bias=False)
              (to_out): Linear(in_features=128, out_features=32, bias=True)
              (dropout): Dropout(p=0.1, inplace=False)
            )
          )
          (1): PreNorm(
            (norm): LayerNorm((32,), eps=1e-05, elementwise_affine=True)
            (fn): FeedForward(
              (net): Sequential(
                (0): Linear(in_features=32, out_features=256, bias=True)
                (1): GEGLU()
                (2): Dropout(p=0.1, inplace=False)
                (3): Linear(in_features=128, out_features=32, bias=True)
              )
            )
          )
        )
        (4): ModuleList(
          (0): PreNorm(
            (norm): LayerNorm((32,), eps=1e-05, elementwise_affine=True)
            (fn): Attention(
              (to_qkv): Linear(in_features=32, out_features=384, bias=False)
              (to_out): Linear(in_features=128, out_features=32, bias=True)
              (dropout): Dropout(p=0.1, inplace=False)
            )
          )
          (1): PreNorm(
            (norm): LayerNorm((32,), eps=1e-05, elementwise_affine=True)
            (fn): FeedForward(
              (net): Sequential(
                (0): Linear(in_features=32, out_features=256, bias=True)
                (1): GEGLU()
                (2): Dropout(p=0.1, inplace=False)
                (3): Linear(in_features=128, out_features=32, bias=True)
              )
            )
          )
        )
        (5): ModuleList(
          (0): PreNorm(
            (norm): LayerNorm((32,), eps=1e-05, elementwise_affine=True)
            (fn): Attention(
              (to_qkv): Linear(in_features=32, out_features=384, bias=False)
              (to_out): Linear(in_features=128, out_features=32, bias=True)
              (dropout): Dropout(p=0.1, inplace=False)
            )
          )
          (1): PreNorm(
            (norm): LayerNorm((32,), eps=1e-05, elementwise_affine=True)
            (fn): FeedForward(
              (net): Sequential(
                (0): Linear(in_features=32, out_features=256, bias=True)
                (1): GEGLU()
                (2): Dropout(p=0.1, inplace=False)
                (3): Linear(in_features=128, out_features=32, bias=True)
              )
            )
          )
        )
      )
    )
    (mlp): MLP(
      (mlp): Sequential(
        (0): Linear(in_features=151, out_features=604, bias=True)
        (1): ReLU()
        (2): Linear(in_features=604, out_features=302, bias=True)
        (3): ReLU()
        (4): Linear(in_features=302, out_features=256, bias=True)
      )
    )
  )
  (atten_pool): FCN(
    (conv): Sequential(
      (0): Conv2d(768, 32, kernel_size=(3, 3), stride=(1, 1), padding=(1, 1))
      (1): Conv2d(32, 16, kernel_size=(3, 3), stride=(1, 1), padding=(1, 1))
      (2): Conv2d(16, 8, kernel_size=(3, 3), stride=(1, 1), padding=(1, 1))
      (3): Conv2d(8, 1, kernel_size=(3, 3), stride=(1, 1), padding=(1, 1))
    )
  )
  (conv3): Sequential(
    (0): Conv3d(768, 8, kernel_size=(4, 3, 3), stride=(1, 1, 1), padding=(1, 1, 1))
    (1): MaxPool3d(kernel_size=(4, 2, 2), stride=(4, 2, 2), padding=0, dilation=1, ceil_mode=False)
    (2): Conv3d(8, 256, kernel_size=(4, 3, 3), stride=(1, 1, 1), padding=(1, 1, 1))
    (3): MaxPool3d(kernel_size=(4, 2, 2), stride=(4, 2, 2), padding=0, dilation=1, ceil_mode=False)
  )
  (gap): AdaptiveAvgPool3d(output_size=(1, 1, 1))
  (fusion): FiLM(
    (fc): Linear(in_features=256, out_features=512, bias=True)
    (fc_out): Linear(in_features=256, out_features=256, bias=True)
  )
  (classifier): Linear(in_features=256, out_features=2, bias=True)
)
Total trainable pytorch params:1.247315 MB
Total pytorch params:1.247315 MB
----------
Train Epoch 0/99
Accuracy of the network on the  test images: 40.698 %


[[11 42]
 [ 9 24]]


SEN 72.73, SPE 20.75, ACC 40.70, F1 48.48, AUC 0.4334

Accuracy of the network on the  test images: 47.368 %


[[ 6 17]
 [ 3 12]]


SEN 80.00, SPE 26.09, ACC 47.37, F1 54.55, AUC 0.4696
…
