Namespace(Adiscription='BiomedCLIP + tabtransformer', base_lr=0.0005, batch_size=1, d_model=256, gpu='0', hidden_dim=64, init_lr=1e-07, lr_way='cos', model_mode='reembed', nclass=2, num_epochs=100, num_warmup=10, saveName='ct_ablation', savePath='log/ct_ablation', seed=3407, weight_decay=0.0005)
image_model_add_reembed(
  (atten_pool): FCN(
    (conv): Sequential(
      (0): Conv2d(768, 32, kernel_size=(3, 3), stride=(1, 1), padding=(1, 1))
      (1): Conv2d(32, 16, kernel_size=(3, 3), stride=(1, 1), padding=(1, 1))
      (2): Conv2d(16, 8, kernel_size=(3, 3), stride=(1, 1), padding=(1, 1))
      (3): Conv2d(8, 1, kernel_size=(3, 3), stride=(1, 1), padding=(1, 1))
    )
  )
  (gap): AdaptiveAvgPool3d(output_size=(1, 1, 1))
  (classifier): Sequential(
    (0): Linear(in_features=768, out_features=64, bias=True)
    (1): Linear(in_features=64, out_features=64, bias=True)
    (2): Linear(in_features=64, out_features=64, bias=True)
    (3): Linear(in_features=64, out_features=2, bias=True)
  )
)
Total trainable pytorch params:0.28473899999999996 MB
Total pytorch params:0.28473899999999996 MB
----------
Train Epoch 0/99
Namespace(Adiscription='BiomedCLIP + tabtransformer', base_lr=0.0005, batch_size=1, d_model=256, gpu='0', hidden_dim=64, init_lr=1e-07, lr_way='cos', model_mode='all', nclass=2, num_epochs=100, num_warmup=10, saveName='ct_ablation', savePath='log/ct_ablation', seed=3407, weight_decay=0.0005)
image_model(
  (atten_pool): FCN(
    (conv): Sequential(
      (0): Conv2d(768, 32, kernel_size=(3, 3), stride=(1, 1), padding=(1, 1))
      (1): Conv2d(32, 16, kernel_size=(3, 3), stride=(1, 1), padding=(1, 1))
      (2): Conv2d(16, 8, kernel_size=(3, 3), stride=(1, 1), padding=(1, 1))
      (3): Conv2d(8, 1, kernel_size=(3, 3), stride=(1, 1), padding=(1, 1))
    )
  )
  (conv3): Sequential(
    (0): Conv3d(768, 8, kernel_size=(4, 3, 3), stride=(1, 1, 1), padding=(1, 1, 1))
    (1): MaxPool3d(kernel_size=(4, 2, 2), stride=(4, 2, 2), padding=0, dilation=1, ceil_mode=False)
    (2): Conv3d(8, 256, kernel_size=(4, 3, 3), stride=(1, 1, 1), padding=(1, 1, 1))
    (3): MaxPool3d(kernel_size=(4, 2, 2), stride=(4, 2, 2), padding=0, dilation=1, ceil_mode=False)
  )
  (gap): AdaptiveAvgPool3d(output_size=(1, 1, 1))
  (classifier): Sequential(
    (0): Linear(in_features=256, out_features=64, bias=True)
    (1): Linear(in_features=64, out_features=64, bias=True)
    (2): Linear(in_features=64, out_features=64, bias=True)
    (3): Linear(in_features=64, out_features=2, bias=True)
  )
)
Total trainable pytorch params:0.5471469999999999 MB
Total pytorch params:0.5471469999999999 MB
----------
Train Epoch 0/99
Accuracy of the network on the  test images: 38.372 %


[[ 0 53]
 [ 0 33]]


SEN 100.00, SPE 0.00, ACC 38.37, F1 55.46, AUC 0.3951

Accuracy of the network on the  test images: 39.474 %


[[ 0 23]
 [ 0 15]]


SEN 100.00, SPE 0.00, ACC 39.47, F1 56.60, AUC 0.5942
…
SEN 42.86, SPE 80.00, ACC 70.37, F1 42.86, AUC 0.5857

-------------------
val best_auc: 0.6782608695652175
val best_acc: 63.1578947368421
val best_epoch: 38
-------------------
test auc: 0.6428571428571428
test acc: 74.07407407407408
-------------------
Namespace(Adiscription='BiomedCLIP + tabtransformer', base_lr=0.0005, batch_size=1, d_model=256, gpu='0', hidden_dim=64, init_lr=1e-07, lr_way='cos', model_mode='reembed', nclass=2, num_epochs=100, num_warmup=10, saveName='ct_ablation', savePath='log/ct_ablation', seed=3407, weight_decay=0.0005)
image_model_add_reembed(
  (atten_pool): FCN(
    (conv): Sequential(
      (0): Conv2d(768, 32, kernel_size=(3, 3), stride=(1, 1), padding=(1, 1))
      (1): Conv2d(32, 16, kernel_size=(3, 3), stride=(1, 1), padding=(1, 1))
      (2): Conv2d(16, 8, kernel_size=(3, 3), stride=(1, 1), padding=(1, 1))
      (3): Conv2d(8, 1, kernel_size=(3, 3), stride=(1, 1), padding=(1, 1))
    )
  )
  (gap): AdaptiveAvgPool3d(output_size=(1, 1, 1))
  (classifier): Sequential(
    (0): Linear(in_features=768, out_features=64, bias=True)
    (1): Linear(in_features=64, out_features=64, bias=True)
    (2): Linear(in_features=64, out_features=64, bias=True)
    (3): Linear(in_features=64, out_features=2, bias=True)
  )
)
Total trainable pytorch params:0.28473899999999996 MB
Total pytorch params:0.28473899999999996 MB
----------
Train Epoch 0/99
Accuracy of the network on the  test images: 61.628 %


[[53  0]
 [33  0]]


SEN 0.00, SPE 100.00, ACC 61.63, F1 0.00, AUC 0.5220

Accuracy of the network on the  test images: 60.526 %


[[23  0]
 [15  0]]


SEN 0.00, SPE 100.00, ACC 60.53, F1 0.00, AUC 0.3855
…

SEN 57.14, SPE 65.00, ACC 62.96, F1 44.44, AUC 0.5286

-------------------
val best_auc: 0.636231884057971
val best_acc: 63.1578947368421
val best_epoch: 83
-------------------
test auc: 0.5428571428571429
test acc: 66.66666666666666
-------------------
Namespace(Adiscription='BiomedCLIP + tabtransformer', base_lr=0.0005, batch_size=1, d_model=256, gpu='0', hidden_dim=64, init_lr=1e-07, lr_way='cos', model_mode='conv', nclass=2, num_epochs=100, num_warmup=10, saveName='ct_ablation', savePath='log/ct_ablation', seed=3407, weight_decay=0.0005)
image_model_add_conv(
  (conv3): Sequential(
    (0): Conv3d(768, 8, kernel_size=(4, 3, 3), stride=(1, 1, 1), padding=(1, 1, 1))
    (1): MaxPool3d(kernel_size=(4, 2, 2), stride=(4, 2, 2), padding=0, dilation=1, ceil_mode=False)
    (2): Conv3d(8, 256, kernel_size=(4, 3, 3), stride=(1, 1, 1), padding=(1, 1, 1))
    (3): MaxPool3d(kernel_size=(4, 2, 2), stride=(4, 2, 2), padding=0, dilation=1, ceil_mode=False)
  )
  (gap): AdaptiveAvgPool3d(output_size=(1, 1, 1))
  (classifier): Sequential(
    (0): Linear(in_features=256, out_features=64, bias=True)
    (1): Linear(in_features=64, out_features=64, bias=True)
    (2): Linear(in_features=64, out_features=64, bias=True)
    (3): Linear(in_features=64, out_features=2, bias=True)
  )
)
Total trainable pytorch params:0.32007399999999997 MB
Total pytorch params:0.32007399999999997 MB
----------
Train Epoch 0/99
Accuracy of the network on the  test images: 38.372 %


[[ 0 53]
 [ 0 33]]


SEN 100.00, SPE 0.00, ACC 38.37, F1 55.46, AUC 0.4923

Accuracy of the network on the  test images: 39.474 %


[[ 0 23]
 [ 0 15]]


SEN 100.00, SPE 0.00, ACC 39.47, F1 56.60, AUC 0.3855
…
