Namespace(Adiscription='BiomedCLIP + tabtransformer', base_lr=0.0005, batch_size=1, d_model=256, gpu='0', hidden_dim=64, init_lr=1e-07, layer_num=1, lr_way='cos', model_mode='union', nclass=2, num_epochs=100, num_warmup=10, saveName='fcn_ablation', savePath='log/fcn_ablation', seed=3407, weight_decay=0.0005)
union_model(
  (tabular_transformer): TabTransformer(
    (category_embed): Embedding(11, 28)
    (norm): LayerNorm((23,), eps=1e-05, elementwise_affine=True)
    (transformer): Transformer(
      (layers): ModuleList(
        (0): ModuleList(
          (0): PreNorm(
            (norm): LayerNorm((32,), eps=1e-05, elementwise_affine=True)
            (fn): Attention(
              (to_qkv): Linear(in_features=32, out_features=384, bias=False)
              (to_out): Linear(in_features=128, out_features=32, bias=True)
              (dropout): Dropout(p=0.1, inplace=False)
            )
          )
          (1): PreNorm(
            (norm): LayerNorm((32,), eps=1e-05, elementwise_affine=True)
            (fn): FeedForward(
              (net): Sequential(
                (0): Linear(in_features=32, out_features=256, bias=True)
                (1): GEGLU()
                (2): Dropout(p=0.1, inplace=False)
                (3): Linear(in_features=128, out_features=32, bias=True)
              )
            )
          )
        )
        (1): ModuleList(
          (0): PreNorm(
            (norm): LayerNorm((32,), eps=1e-05, elementwise_affine=True)
            (fn): Attention(
              (to_qkv): Linear(in_features=32, out_features=384, bias=False)
              (to_out): Linear(in_features=128, out_features=32, bias=True)
              (dropout): Dropout(p=0.1, inplace=False)
            )
          )
          (1): PreNorm(
            (norm): LayerNorm((32,), eps=1e-05, elementwise_affine=True)
            (fn): FeedForward(
              (net): Sequential(
                (0): Linear(in_features=32, out_features=256, bias=True)
                (1): GEGLU()
                (2): Dropout(p=0.1, inplace=False)
                (3): Linear(in_features=128, out_features=32, bias=True)
              )
            )
          )
        )
        (2): ModuleList(
          (0): PreNorm(
            (norm): LayerNorm((32,), eps=1e-05, elementwise_affine=True)
            (fn): Attention(
              (to_qkv): Linear(in_features=32, out_features=384, bias=False)
              (to_out): Linear(in_features=128, out_features=32, bias=True)
              (dropout): Dropout(p=0.1, inplace=False)
            )
          )
          (1): PreNorm(
            (norm): LayerNorm((32,), eps=1e-05, elementwise_affine=True)
            (fn): FeedForward(
              (net): Sequential(
                (0): Linear(in_features=32, out_features=256, bias=True)
                (1): GEGLU()
                (2): Dropout(p=0.1, inplace=False)
                (3): Linear(in_features=128, out_features=32, bias=True)
              )
            )
          )
        )
        (3): ModuleList(
          (0): PreNorm(
            (norm): LayerNorm((32,), eps=1e-05, elementwise_affine=True)
            (fn): Attention(
              (to_qkv): Linear(in_features=32, out_features=384, bias=False)
              (to_out): Linear(in_features=128, out_features=32, bias=True)
              (dropout): Dropout(p=0.1, inplace=False)
            )
          )
          (1): PreNorm(
            (norm): LayerNorm((32,), eps=1e-05, elementwise_affine=True)
            (fn): FeedForward(
              (net): Sequential(
                (0): Linear(in_features=32, out_features=256, bias=True)
                (1): GEGLU()
                (2): Dropout(p=0.1, inplace=False)
                (3): Linear(in_features=128, out_features=32, bias=True)
              )
            )
          )
        )
        (4): ModuleList(
          (0): PreNorm(
            (norm): LayerNorm((32,), eps=1e-05, elementwise_affine=True)
            (fn): Attention(
              (to_qkv): Linear(in_features=32, out_features=384, bias=False)
              (to_out): Linear(in_features=128, out_features=32, bias=True)
              (dropout): Dropout(p=0.1, inplace=False)
            )
          )
          (1): PreNorm(
            (norm): LayerNorm((32,), eps=1e-05, elementwise_affine=True)
            (fn): FeedForward(
              (net): Sequential(
                (0): Linear(in_features=32, out_features=256, bias=True)
                (1): GEGLU()
                (2): Dropout(p=0.1, inplace=False)
                (3): Linear(in_features=128, out_features=32, bias=True)
              )
            )
          )
        )
        (5): ModuleList(
          (0): PreNorm(
            (norm): LayerNorm((32,), eps=1e-05, elementwise_affine=True)
            (fn): Attention(
              (to_qkv): Linear(in_features=32, out_features=384, bias=False)
              (to_out): Linear(in_features=128, out_features=32, bias=True)
              (dropout): Dropout(p=0.1, inplace=False)
            )
          )
          (1): PreNorm(
            (norm): LayerNorm((32,), eps=1e-05, elementwise_affine=True)
            (fn): FeedForward(
              (net): Sequential(
                (0): Linear(in_features=32, out_features=256, bias=True)
                (1): GEGLU()
                (2): Dropout(p=0.1, inplace=False)
                (3): Linear(in_features=128, out_features=32, bias=True)
              )
            )
          )
        )
      )
    )
    (mlp): MLP(
      (mlp): Sequential(
        (0): Linear(in_features=151, out_features=604, bias=True)
        (1): ReLU()
        (2): Linear(in_features=604, out_features=302, bias=True)
        (3): ReLU()
        (4): Linear(in_features=302, out_features=256, bias=True)
      )
    )
  )
  (atten_pool): FCN(
    (conv): Sequential(
      (0): Conv2d(768, 1, kernel_size=(3, 3), stride=(1, 1), padding=(1, 1))
    )
  )
  (conv3): Sequential(
    (0): Conv3d(768, 8, kernel_size=(4, 3, 3), stride=(1, 1, 1), padding=(1, 1, 1))
    (1): MaxPool3d(kernel_size=(4, 2, 2), stride=(4, 2, 2), padding=0, dilation=1, ceil_mode=False)
    (2): Conv3d(8, 256, kernel_size=(4, 3, 3), stride=(1, 1, 1), padding=(1, 1, 1))
    (3): MaxPool3d(kernel_size=(4, 2, 2), stride=(4, 2, 2), padding=0, dilation=1, ceil_mode=False)
  )
  (gap): AdaptiveAvgPool3d(output_size=(1, 1, 1))
  (classifier): Linear(in_features=512, out_features=2, bias=True)
  (fusion): MMTM(
    (fc_squeeze): Linear(in_features=512, out_features=1024, bias=True)
    (fc_visual): Linear(in_features=1024, out_features=256, bias=True)
    (fc_skeleton): Linear(in_features=1024, out_features=256, bias=True)
    (relu): ReLU()
    (sigmoid): Sigmoid()
  )
)
Total trainable pytorch params:1.8804029999999998 MB
Total pytorch params:1.8804029999999998 MB
----------
Train Epoch 0/99
Accuracy of the network on the  test images: 38.372 %


[[ 0 53]
 [ 0 33]]


SEN 100.00, SPE 0.00, ACC 38.37, F1 55.46, AUC 0.5000

Dice_Score 0.095, PA 0.107, IOU 0.057, FWIOU 0.058,
…
Dice_Score 0.509, PA 0.951, IOU 0.648, FWIOU 0.924,
-------------------
val best_auc: 0.8637681159420291
val best_acc: 89.47368421052632
val best_epoch: 51
-------------------
test auc: 0.9
test acc: 81.48148148148148
-------------------
Namespace(Adiscription='BiomedCLIP + tabtransformer', base_lr=0.0005, batch_size=1, d_model=256, gpu='0', hidden_dim=64, init_lr=1e-07, layer_num=2, lr_way='cos', model_mode='union', nclass=2, num_epochs=100, num_warmup=10, saveName='fcn_ablation', savePath='log/fcn_ablation', seed=3407, weight_decay=0.0005)
union_model(
  (tabular_transformer): TabTransformer(
    (category_embed): Embedding(11, 28)
    (norm): LayerNorm((23,), eps=1e-05, elementwise_affine=True)
    (transformer): Transformer(
      (layers): ModuleList(
        (0): ModuleList(
          (0): PreNorm(
            (norm): LayerNorm((32,), eps=1e-05, elementwise_affine=True)
            (fn): Attention(
              (to_qkv): Linear(in_features=32, out_features=384, bias=False)
              (to_out): Linear(in_features=128, out_features=32, bias=True)
              (dropout): Dropout(p=0.1, inplace=False)
            )
          )
          (1): PreNorm(
            (norm): LayerNorm((32,), eps=1e-05, elementwise_affine=True)
            (fn): FeedForward(
              (net): Sequential(
                (0): Linear(in_features=32, out_features=256, bias=True)
                (1): GEGLU()
                (2): Dropout(p=0.1, inplace=False)
                (3): Linear(in_features=128, out_features=32, bias=True)
              )
            )
          )
        )
        (1): ModuleList(
          (0): PreNorm(
            (norm): LayerNorm((32,), eps=1e-05, elementwise_affine=True)
            (fn): Attention(
              (to_qkv): Linear(in_features=32, out_features=384, bias=False)
              (to_out): Linear(in_features=128, out_features=32, bias=True)
              (dropout): Dropout(p=0.1, inplace=False)
            )
          )
          (1): PreNorm(
            (norm): LayerNorm((32,), eps=1e-05, elementwise_affine=True)
            (fn): FeedForward(
              (net): Sequential(
                (0): Linear(in_features=32, out_features=256, bias=True)
                (1): GEGLU()
                (2): Dropout(p=0.1, inplace=False)
                (3): Linear(in_features=128, out_features=32, bias=True)
              )
            )
          )
        )
        (2): ModuleList(
          (0): PreNorm(
            (norm): LayerNorm((32,), eps=1e-05, elementwise_affine=True)
            (fn): Attention(
              (to_qkv): Linear(in_features=32, out_features=384, bias=False)
              (to_out): Linear(in_features=128, out_features=32, bias=True)
              (dropout): Dropout(p=0.1, inplace=False)
            )
          )
          (1): PreNorm(
            (norm): LayerNorm((32,), eps=1e-05, elementwise_affine=True)
            (fn): FeedForward(
              (net): Sequential(
                (0): Linear(in_features=32, out_features=256, bias=True)
                (1): GEGLU()
                (2): Dropout(p=0.1, inplace=False)
                (3): Linear(in_features=128, out_features=32, bias=True)
              )
            )
          )
        )
        (3): ModuleList(
          (0): PreNorm(
            (norm): LayerNorm((32,), eps=1e-05, elementwise_affine=True)
            (fn): Attention(
              (to_qkv): Linear(in_features=32, out_features=384, bias=False)
              (to_out): Linear(in_features=128, out_features=32, bias=True)
              (dropout): Dropout(p=0.1, inplace=False)
            )
          )
          (1): PreNorm(
            (norm): LayerNorm((32,), eps=1e-05, elementwise_affine=True)
            (fn): FeedForward(
              (net): Sequential(
                (0): Linear(in_features=32, out_features=256, bias=True)
                (1): GEGLU()
                (2): Dropout(p=0.1, inplace=False)
                (3): Linear(in_features=128, out_features=32, bias=True)
              )
            )
          )
        )
        (4): ModuleList(
          (0): PreNorm(
            (norm): LayerNorm((32,), eps=1e-05, elementwise_affine=True)
            (fn): Attention(
              (to_qkv): Linear(in_features=32, out_features=384, bias=False)
              (to_out): Linear(in_features=128, out_features=32, bias=True)
              (dropout): Dropout(p=0.1, inplace=False)
            )
          )
          (1): PreNorm(
            (norm): LayerNorm((32,), eps=1e-05, elementwise_affine=True)
            (fn): FeedForward(
              (net): Sequential(
                (0): Linear(in_features=32, out_features=256, bias=True)
                (1): GEGLU()
                (2): Dropout(p=0.1, inplace=False)
                (3): Linear(in_features=128, out_features=32, bias=True)
              )
            )
          )
        )
        (5): ModuleList(
          (0): PreNorm(
            (norm): LayerNorm((32,), eps=1e-05, elementwise_affine=True)
            (fn): Attention(
              (to_qkv): Linear(in_features=32, out_features=384, bias=False)
              (to_out): Linear(in_features=128, out_features=32, bias=True)
              (dropout): Dropout(p=0.1, inplace=False)
            )
          )
          (1): PreNorm(
            (norm): LayerNorm((32,), eps=1e-05, elementwise_affine=True)
            (fn): FeedForward(
              (net): Sequential(
                (0): Linear(in_features=32, out_features=256, bias=True)
                (1): GEGLU()
                (2): Dropout(p=0.1, inplace=False)
                (3): Linear(in_features=128, out_features=32, bias=True)
              )
            )
          )
        )
      )
    )
    (mlp): MLP(
      (mlp): Sequential(
        (0): Linear(in_features=151, out_features=604, bias=True)
        (1): ReLU()
        (2): Linear(in_features=604, out_features=302, bias=True)
        (3): ReLU()
        (4): Linear(in_features=302, out_features=256, bias=True)
      )
    )
  )
  (atten_pool): FCN(
    (conv): Sequential(
      (0): Conv2d(768, 32, kernel_size=(3, 3), stride=(1, 1), padding=(1, 1))
      (1): Conv2d(32, 1, kernel_size=(3, 3), stride=(1, 1), padding=(1, 1))
    )
  )
  (conv3): Sequential(
    (0): Conv3d(768, 8, kernel_size=(4, 3, 3), stride=(1, 1, 1), padding=(1, 1, 1))
    (1): MaxPool3d(kernel_size=(4, 2, 2), stride=(4, 2, 2), padding=0, dilation=1, ceil_mode=False)
    (2): Conv3d(8, 256, kernel_size=(4, 3, 3), stride=(1, 1, 1), padding=(1, 1, 1))
    (3): MaxPool3d(kernel_size=(4, 2, 2), stride=(4, 2, 2), padding=0, dilation=1, ceil_mode=False)
  )
  (gap): AdaptiveAvgPool3d(output_size=(1, 1, 1))
  (classifier): Linear(in_features=512, out_features=2, bias=True)
  (fusion): MMTM(
    (fc_squeeze): Linear(in_features=512, out_features=1024, bias=True)
    (fc_visual): Linear(in_features=1024, out_features=256, bias=True)
    (fc_skeleton): Linear(in_features=1024, out_features=256, bias=True)
    (relu): ReLU()
    (sigmoid): Sigmoid()
  )
)
Total trainable pytorch params:2.094995 MB
Total pytorch params:2.094995 MB
----------
Train Epoch 0/99
Accuracy of the network on the  test images: 41.860 %


[[ 4 49]
 [ 1 32]]


SEN 96.97, SPE 7.55, ACC 41.86, F1 56.14, AUC 0.4740

Dice_Score 0.093, PA 0.054, IOU 0.027, FWIOU 0.003,
Accuracy of the network on the  test images: 36.842 %
…
Dice_Score 0.567, PA 0.965, IOU 0.680, FWIOU 0.940,
-------------------
val best_auc: 0.9101449275362319
val best_acc: 89.47368421052632
val best_epoch: 50
-------------------
test auc: 0.8571428571428571
test acc: 74.07407407407408
-------------------
Namespace(Adiscription='BiomedCLIP + tabtransformer', base_lr=0.0005, batch_size=1, d_model=256, gpu='0', hidden_dim=64, init_lr=1e-07, layer_num=3, lr_way='cos', model_mode='union', nclass=2, num_epochs=100, num_warmup=10, saveName='fcn_ablation', savePath='log/fcn_ablation', seed=3407, weight_decay=0.0005)
union_model(
  (tabular_transformer): TabTransformer(
    (category_embed): Embedding(11, 28)
    (norm): LayerNorm((23,), eps=1e-05, elementwise_affine=True)
    (transformer): Transformer(
      (layers): ModuleList(
        (0): ModuleList(
          (0): PreNorm(
            (norm): LayerNorm((32,), eps=1e-05, elementwise_affine=True)
            (fn): Attention(
              (to_qkv): Linear(in_features=32, out_features=384, bias=False)
              (to_out): Linear(in_features=128, out_features=32, bias=True)
              (dropout): Dropout(p=0.1, inplace=False)
            )
          )
          (1): PreNorm(
            (norm): LayerNorm((32,), eps=1e-05, elementwise_affine=True)
            (fn): FeedForward(
              (net): Sequential(
                (0): Linear(in_features=32, out_features=256, bias=True)
                (1): GEGLU()
                (2): Dropout(p=0.1, inplace=False)
                (3): Linear(in_features=128, out_features=32, bias=True)
              )
            )
          )
        )
        (1): ModuleList(
          (0): PreNorm(
            (norm): LayerNorm((32,), eps=1e-05, elementwise_affine=True)
            (fn): Attention(
              (to_qkv): Linear(in_features=32, out_features=384, bias=False)
              (to_out): Linear(in_features=128, out_features=32, bias=True)
              (dropout): Dropout(p=0.1, inplace=False)
            )
          )
          (1): PreNorm(
            (norm): LayerNorm((32,), eps=1e-05, elementwise_affine=True)
            (fn): FeedForward(
              (net): Sequential(
                (0): Linear(in_features=32, out_features=256, bias=True)
                (1): GEGLU()
                (2): Dropout(p=0.1, inplace=False)
                (3): Linear(in_features=128, out_features=32, bias=True)
              )
            )
          )
        )
        (2): ModuleList(
          (0): PreNorm(
            (norm): LayerNorm((32,), eps=1e-05, elementwise_affine=True)
            (fn): Attention(
              (to_qkv): Linear(in_features=32, out_features=384, bias=False)
              (to_out): Linear(in_features=128, out_features=32, bias=True)
              (dropout): Dropout(p=0.1, inplace=False)
            )
          )
          (1): PreNorm(
            (norm): LayerNorm((32,), eps=1e-05, elementwise_affine=True)
            (fn): FeedForward(
              (net): Sequential(
                (0): Linear(in_features=32, out_features=256, bias=True)
                (1): GEGLU()
                (2): Dropout(p=0.1, inplace=False)
                (3): Linear(in_features=128, out_features=32, bias=True)
              )
            )
          )
        )
        (3): ModuleList(
          (0): PreNorm(
            (norm): LayerNorm((32,), eps=1e-05, elementwise_affine=True)
            (fn): Attention(
              (to_qkv): Linear(in_features=32, out_features=384, bias=False)
              (to_out): Linear(in_features=128, out_features=32, bias=True)
              (dropout): Dropout(p=0.1, inplace=False)
            )
          )
          (1): PreNorm(
            (norm): LayerNorm((32,), eps=1e-05, elementwise_affine=True)
            (fn): FeedForward(
              (net): Sequential(
                (0): Linear(in_features=32, out_features=256, bias=True)
                (1): GEGLU()
                (2): Dropout(p=0.1, inplace=False)
                (3): Linear(in_features=128, out_features=32, bias=True)
              )
            )
          )
        )
        (4): ModuleList(
          (0): PreNorm(
            (norm): LayerNorm((32,), eps=1e-05, elementwise_affine=True)
            (fn): Attention(
              (to_qkv): Linear(in_features=32, out_features=384, bias=False)
              (to_out): Linear(in_features=128, out_features=32, bias=True)
              (dropout): Dropout(p=0.1, inplace=False)
            )
          )
          (1): PreNorm(
            (norm): LayerNorm((32,), eps=1e-05, elementwise_affine=True)
            (fn): FeedForward(
              (net): Sequential(
                (0): Linear(in_features=32, out_features=256, bias=True)
                (1): GEGLU()
                (2): Dropout(p=0.1, inplace=False)
                (3): Linear(in_features=128, out_features=32, bias=True)
              )
            )
          )
        )
        (5): ModuleList(
          (0): PreNorm(
            (norm): LayerNorm((32,), eps=1e-05, elementwise_affine=True)
            (fn): Attention(
              (to_qkv): Linear(in_features=32, out_features=384, bias=False)
              (to_out): Linear(in_features=128, out_features=32, bias=True)
              (dropout): Dropout(p=0.1, inplace=False)
            )
          )
          (1): PreNorm(
            (norm): LayerNorm((32,), eps=1e-05, elementwise_affine=True)
            (fn): FeedForward(
              (net): Sequential(
                (0): Linear(in_features=32, out_features=256, bias=True)
                (1): GEGLU()
                (2): Dropout(p=0.1, inplace=False)
                (3): Linear(in_features=128, out_features=32, bias=True)
              )
            )
          )
        )
      )
    )
    (mlp): MLP(
      (mlp): Sequential(
        (0): Linear(in_features=151, out_features=604, bias=True)
        (1): ReLU()
        (2): Linear(in_features=604, out_features=302, bias=True)
        (3): ReLU()
        (4): Linear(in_features=302, out_features=256, bias=True)
      )
    )
  )
  (atten_pool): FCN(
    (conv): Sequential(
      (0): Conv2d(768, 32, kernel_size=(3, 3), stride=(1, 1), padding=(1, 1))
      (1): Conv2d(32, 16, kernel_size=(3, 3), stride=(1, 1), padding=(1, 1))
      (2): Conv2d(16, 1, kernel_size=(3, 3), stride=(1, 1), padding=(1, 1))
    )
  )
  (conv3): Sequential(
    (0): Conv3d(768, 8, kernel_size=(4, 3, 3), stride=(1, 1, 1), padding=(1, 1, 1))
    (1): MaxPool3d(kernel_size=(4, 2, 2), stride=(4, 2, 2), padding=0, dilation=1, ceil_mode=False)
    (2): Conv3d(8, 256, kernel_size=(4, 3, 3), stride=(1, 1, 1), padding=(1, 1, 1))
    (3): MaxPool3d(kernel_size=(4, 2, 2), stride=(4, 2, 2), padding=0, dilation=1, ceil_mode=False)
  )
  (gap): AdaptiveAvgPool3d(output_size=(1, 1, 1))
  (classifier): Linear(in_features=512, out_features=2, bias=True)
  (fusion): MMTM(
    (fc_squeeze): Linear(in_features=512, out_features=1024, bias=True)
    (fc_visual): Linear(in_features=1024, out_features=256, bias=True)
    (fc_skeleton): Linear(in_features=1024, out_features=256, bias=True)
    (relu): ReLU()
    (sigmoid): Sigmoid()
  )
)
Total trainable pytorch params:2.099475 MB
Total pytorch params:2.099475 MB
----------
Train Epoch 0/99
Accuracy of the network on the  test images: 58.140 %


[[50  3]
 [33  0]]


SEN 0.00, SPE 94.34, ACC 58.14, F1 0.00, AUC 0.4168

Dice_Score 0.475, PA 0.946, IOU 0.473, FWIOU 0.895,
Accuracy of the network on the  test images: 60.526 %
…
Dice_Score 0.565, PA 0.964, IOU 0.677, FWIOU 0.939,
-------------------
val best_auc: 0.8608695652173912
val best_acc: 84.21052631578947
val best_epoch: 58
-------------------
test auc: 0.9357142857142857
test acc: 81.48148148148148
-------------------
Namespace(Adiscription='BiomedCLIP + tabtransformer', base_lr=0.0005, batch_size=1, d_model=256, gpu='0', hidden_dim=64, init_lr=1e-07, layer_num=4, lr_way='cos', model_mode='union', nclass=2, num_epochs=100, num_warmup=10, saveName='fcn_ablation', savePath='log/fcn_ablation', seed=3407, weight_decay=0.0005)
union_model(
  (tabular_transformer): TabTransformer(
    (category_embed): Embedding(11, 28)
    (norm): LayerNorm((23,), eps=1e-05, elementwise_affine=True)
    (transformer): Transformer(
      (layers): ModuleList(
        (0): ModuleList(
          (0): PreNorm(
            (norm): LayerNorm((32,), eps=1e-05, elementwise_affine=True)
            (fn): Attention(
              (to_qkv): Linear(in_features=32, out_features=384, bias=False)
              (to_out): Linear(in_features=128, out_features=32, bias=True)
              (dropout): Dropout(p=0.1, inplace=False)
            )
          )
          (1): PreNorm(
            (norm): LayerNorm((32,), eps=1e-05, elementwise_affine=True)
            (fn): FeedForward(
              (net): Sequential(
                (0): Linear(in_features=32, out_features=256, bias=True)
                (1): GEGLU()
                (2): Dropout(p=0.1, inplace=False)
                (3): Linear(in_features=128, out_features=32, bias=True)
              )
            )
          )
        )
        (1): ModuleList(
          (0): PreNorm(
            (norm): LayerNorm((32,), eps=1e-05, elementwise_affine=True)
            (fn): Attention(
              (to_qkv): Linear(in_features=32, out_features=384, bias=False)
              (to_out): Linear(in_features=128, out_features=32, bias=True)
              (dropout): Dropout(p=0.1, inplace=False)
            )
          )
          (1): PreNorm(
            (norm): LayerNorm((32,), eps=1e-05, elementwise_affine=True)
            (fn): FeedForward(
              (net): Sequential(
                (0): Linear(in_features=32, out_features=256, bias=True)
                (1): GEGLU()
                (2): Dropout(p=0.1, inplace=False)
                (3): Linear(in_features=128, out_features=32, bias=True)
              )
            )
          )
        )
        (2): ModuleList(
          (0): PreNorm(
            (norm): LayerNorm((32,), eps=1e-05, elementwise_affine=True)
            (fn): Attention(
              (to_qkv): Linear(in_features=32, out_features=384, bias=False)
              (to_out): Linear(in_features=128, out_features=32, bias=True)
              (dropout): Dropout(p=0.1, inplace=False)
            )
          )
          (1): PreNorm(
            (norm): LayerNorm((32,), eps=1e-05, elementwise_affine=True)
            (fn): FeedForward(
              (net): Sequential(
                (0): Linear(in_features=32, out_features=256, bias=True)
                (1): GEGLU()
                (2): Dropout(p=0.1, inplace=False)
                (3): Linear(in_features=128, out_features=32, bias=True)
              )
            )
          )
        )
        (3): ModuleList(
          (0): PreNorm(
            (norm): LayerNorm((32,), eps=1e-05, elementwise_affine=True)
            (fn): Attention(
              (to_qkv): Linear(in_features=32, out_features=384, bias=False)
              (to_out): Linear(in_features=128, out_features=32, bias=True)
              (dropout): Dropout(p=0.1, inplace=False)
            )
          )
          (1): PreNorm(
            (norm): LayerNorm((32,), eps=1e-05, elementwise_affine=True)
            (fn): FeedForward(
              (net): Sequential(
                (0): Linear(in_features=32, out_features=256, bias=True)
                (1): GEGLU()
                (2): Dropout(p=0.1, inplace=False)
                (3): Linear(in_features=128, out_features=32, bias=True)
              )
            )
          )
        )
        (4): ModuleList(
          (0): PreNorm(
            (norm): LayerNorm((32,), eps=1e-05, elementwise_affine=True)
            (fn): Attention(
              (to_qkv): Linear(in_features=32, out_features=384, bias=False)
              (to_out): Linear(in_features=128, out_features=32, bias=True)
              (dropout): Dropout(p=0.1, inplace=False)
            )
          )
          (1): PreNorm(
            (norm): LayerNorm((32,), eps=1e-05, elementwise_affine=True)
            (fn): FeedForward(
              (net): Sequential(
                (0): Linear(in_features=32, out_features=256, bias=True)
                (1): GEGLU()
                (2): Dropout(p=0.1, inplace=False)
                (3): Linear(in_features=128, out_features=32, bias=True)
              )
            )
          )
        )
        (5): ModuleList(
          (0): PreNorm(
            (norm): LayerNorm((32,), eps=1e-05, elementwise_affine=True)
            (fn): Attention(
              (to_qkv): Linear(in_features=32, out_features=384, bias=False)
              (to_out): Linear(in_features=128, out_features=32, bias=True)
              (dropout): Dropout(p=0.1, inplace=False)
            )
          )
          (1): PreNorm(
            (norm): LayerNorm((32,), eps=1e-05, elementwise_affine=True)
            (fn): FeedForward(
              (net): Sequential(
                (0): Linear(in_features=32, out_features=256, bias=True)
                (1): GEGLU()
                (2): Dropout(p=0.1, inplace=False)
                (3): Linear(in_features=128, out_features=32, bias=True)
              )
            )
          )
        )
      )
    )
    (mlp): MLP(
      (mlp): Sequential(
        (0): Linear(in_features=151, out_features=604, bias=True)
        (1): ReLU()
        (2): Linear(in_features=604, out_features=302, bias=True)
        (3): ReLU()
        (4): Linear(in_features=302, out_features=256, bias=True)
      )
    )
  )
  (atten_pool): FCN(
    (conv): Sequential(
      (0): Conv2d(768, 32, kernel_size=(3, 3), stride=(1, 1), padding=(1, 1))
      (1): Conv2d(32, 16, kernel_size=(3, 3), stride=(1, 1), padding=(1, 1))
      (2): Conv2d(16, 8, kernel_size=(3, 3), stride=(1, 1), padding=(1, 1))
      (3): Conv2d(8, 1, kernel_size=(3, 3), stride=(1, 1), padding=(1, 1))
    )
  )
  (conv3): Sequential(
    (0): Conv3d(768, 8, kernel_size=(4, 3, 3), stride=(1, 1, 1), padding=(1, 1, 1))
    (1): MaxPool3d(kernel_size=(4, 2, 2), stride=(4, 2, 2), padding=0, dilation=1, ceil_mode=False)
    (2): Conv3d(8, 256, kernel_size=(4, 3, 3), stride=(1, 1, 1), padding=(1, 1, 1))
    (3): MaxPool3d(kernel_size=(4, 2, 2), stride=(4, 2, 2), padding=0, dilation=1, ceil_mode=False)
  )
  (gap): AdaptiveAvgPool3d(output_size=(1, 1, 1))
  (classifier): Linear(in_features=512, out_features=2, bias=True)
  (fusion): MMTM(
    (fc_squeeze): Linear(in_features=512, out_features=1024, bias=True)
    (fc_visual): Linear(in_features=1024, out_features=256, bias=True)
    (fc_skeleton): Linear(in_features=1024, out_features=256, bias=True)
    (relu): ReLU()
    (sigmoid): Sigmoid()
  )
)
Total trainable pytorch params:2.1005629999999997 MB
Total pytorch params:2.1005629999999997 MB
----------
Train Epoch 0/99
Accuracy of the network on the  test images: 47.674 %


[[16 37]
 [ 8 25]]


SEN 75.76, SPE 30.19, ACC 47.67, F1 52.63, AUC 0.4734

Dice_Score 0.093, PA 0.054, IOU 0.027, FWIOU 0.003,
…
Dice_Score 0.559, PA 0.965, IOU 0.682, FWIOU 0.940,
-------------------
val best_auc: 0.9043478260869566
val best_acc: 89.47368421052632
val best_epoch: 99
-------------------
test auc: 0.9357142857142857
test acc: 88.88888888888889
-------------------
Namespace(Adiscription='BiomedCLIP + tabtransformer', base_lr=0.0005, batch_size=1, d_model=256, gpu='0', hidden_dim=64, init_lr=1e-07, layer_num=5, lr_way='cos', model_mode='union', nclass=2, num_epochs=100, num_warmup=10, saveName='fcn_ablation', savePath='log/fcn_ablation', seed=3407, weight_decay=0.0005)
union_model(
  (tabular_transformer): TabTransformer(
    (category_embed): Embedding(11, 28)
    (norm): LayerNorm((23,), eps=1e-05, elementwise_affine=True)
    (transformer): Transformer(
      (layers): ModuleList(
        (0): ModuleList(
          (0): PreNorm(
            (norm): LayerNorm((32,), eps=1e-05, elementwise_affine=True)
            (fn): Attention(
              (to_qkv): Linear(in_features=32, out_features=384, bias=False)
              (to_out): Linear(in_features=128, out_features=32, bias=True)
              (dropout): Dropout(p=0.1, inplace=False)
            )
          )
          (1): PreNorm(
            (norm): LayerNorm((32,), eps=1e-05, elementwise_affine=True)
            (fn): FeedForward(
              (net): Sequential(
                (0): Linear(in_features=32, out_features=256, bias=True)
                (1): GEGLU()
                (2): Dropout(p=0.1, inplace=False)
                (3): Linear(in_features=128, out_features=32, bias=True)
              )
            )
          )
        )
        (1): ModuleList(
          (0): PreNorm(
            (norm): LayerNorm((32,), eps=1e-05, elementwise_affine=True)
            (fn): Attention(
              (to_qkv): Linear(in_features=32, out_features=384, bias=False)
              (to_out): Linear(in_features=128, out_features=32, bias=True)
              (dropout): Dropout(p=0.1, inplace=False)
            )
          )
          (1): PreNorm(
            (norm): LayerNorm((32,), eps=1e-05, elementwise_affine=True)
            (fn): FeedForward(
              (net): Sequential(
                (0): Linear(in_features=32, out_features=256, bias=True)
                (1): GEGLU()
                (2): Dropout(p=0.1, inplace=False)
                (3): Linear(in_features=128, out_features=32, bias=True)
              )
            )
          )
        )
        (2): ModuleList(
          (0): PreNorm(
            (norm): LayerNorm((32,), eps=1e-05, elementwise_affine=True)
            (fn): Attention(
              (to_qkv): Linear(in_features=32, out_features=384, bias=False)
              (to_out): Linear(in_features=128, out_features=32, bias=True)
              (dropout): Dropout(p=0.1, inplace=False)
            )
          )
          (1): PreNorm(
            (norm): LayerNorm((32,), eps=1e-05, elementwise_affine=True)
            (fn): FeedForward(
              (net): Sequential(
                (0): Linear(in_features=32, out_features=256, bias=True)
                (1): GEGLU()
                (2): Dropout(p=0.1, inplace=False)
                (3): Linear(in_features=128, out_features=32, bias=True)
              )
            )
          )
        )
        (3): ModuleList(
          (0): PreNorm(
            (norm): LayerNorm((32,), eps=1e-05, elementwise_affine=True)
            (fn): Attention(
              (to_qkv): Linear(in_features=32, out_features=384, bias=False)
              (to_out): Linear(in_features=128, out_features=32, bias=True)
              (dropout): Dropout(p=0.1, inplace=False)
            )
          )
          (1): PreNorm(
            (norm): LayerNorm((32,), eps=1e-05, elementwise_affine=True)
            (fn): FeedForward(
              (net): Sequential(
                (0): Linear(in_features=32, out_features=256, bias=True)
                (1): GEGLU()
                (2): Dropout(p=0.1, inplace=False)
                (3): Linear(in_features=128, out_features=32, bias=True)
              )
            )
          )
        )
        (4): ModuleList(
          (0): PreNorm(
            (norm): LayerNorm((32,), eps=1e-05, elementwise_affine=True)
            (fn): Attention(
              (to_qkv): Linear(in_features=32, out_features=384, bias=False)
              (to_out): Linear(in_features=128, out_features=32, bias=True)
              (dropout): Dropout(p=0.1, inplace=False)
            )
          )
          (1): PreNorm(
            (norm): LayerNorm((32,), eps=1e-05, elementwise_affine=True)
            (fn): FeedForward(
              (net): Sequential(
                (0): Linear(in_features=32, out_features=256, bias=True)
                (1): GEGLU()
                (2): Dropout(p=0.1, inplace=False)
                (3): Linear(in_features=128, out_features=32, bias=True)
              )
            )
          )
        )
        (5): ModuleList(
          (0): PreNorm(
            (norm): LayerNorm((32,), eps=1e-05, elementwise_affine=True)
            (fn): Attention(
              (to_qkv): Linear(in_features=32, out_features=384, bias=False)
              (to_out): Linear(in_features=128, out_features=32, bias=True)
              (dropout): Dropout(p=0.1, inplace=False)
            )
          )
          (1): PreNorm(
            (norm): LayerNorm((32,), eps=1e-05, elementwise_affine=True)
            (fn): FeedForward(
              (net): Sequential(
                (0): Linear(in_features=32, out_features=256, bias=True)
                (1): GEGLU()
                (2): Dropout(p=0.1, inplace=False)
                (3): Linear(in_features=128, out_features=32, bias=True)
              )
            )
          )
        )
      )
    )
    (mlp): MLP(
      (mlp): Sequential(
        (0): Linear(in_features=151, out_features=604, bias=True)
        (1): ReLU()
        (2): Linear(in_features=604, out_features=302, bias=True)
        (3): ReLU()
        (4): Linear(in_features=302, out_features=256, bias=True)
      )
    )
  )
  (atten_pool): FCN(
    (conv): Sequential(
      (0): Conv2d(768, 32, kernel_size=(3, 3), stride=(1, 1), padding=(1, 1))
      (1): Conv2d(32, 16, kernel_size=(3, 3), stride=(1, 1), padding=(1, 1))
      (2): Conv2d(16, 8, kernel_size=(3, 3), stride=(1, 1), padding=(1, 1))
      (3): Conv2d(8, 4, kernel_size=(3, 3), stride=(1, 1), padding=(1, 1))
      (4): Conv2d(4, 1, kernel_size=(3, 3), stride=(1, 1), padding=(1, 1))
    )
  )
  (conv3): Sequential(
    (0): Conv3d(768, 8, kernel_size=(4, 3, 3), stride=(1, 1, 1), padding=(1, 1, 1))
    (1): MaxPool3d(kernel_size=(4, 2, 2), stride=(4, 2, 2), padding=0, dilation=1, ceil_mode=False)
    (2): Conv3d(8, 256, kernel_size=(4, 3, 3), stride=(1, 1, 1), padding=(1, 1, 1))
    (3): MaxPool3d(kernel_size=(4, 2, 2), stride=(4, 2, 2), padding=0, dilation=1, ceil_mode=False)
  )
  (gap): AdaptiveAvgPool3d(output_size=(1, 1, 1))
  (classifier): Linear(in_features=512, out_features=2, bias=True)
  (fusion): MMTM(
    (fc_squeeze): Linear(in_features=512, out_features=1024, bias=True)
    (fc_visual): Linear(in_features=1024, out_features=256, bias=True)
    (fc_skeleton): Linear(in_features=1024, out_features=256, bias=True)
    (relu): ReLU()
    (sigmoid): Sigmoid()
  )
)
Total trainable pytorch params:2.100819 MB
Total pytorch params:2.100819 MB
----------
Train Epoch 0/99
Accuracy of the network on the  test images: 37.209 %


[[13 40]
 [14 19]]


SEN 57.58, SPE 24.53, ACC 37.21, F1 41.30, AUC 0.4097

Dice_Score 0.093, PA 0.054, IOU 0.027, FWIOU 0.003,
Accuracy of the network on the  test images: 23.684 %
…
Dice_Score 0.559, PA 0.964, IOU 0.681, FWIOU 0.939,
-------------------
val best_auc: 0.8927536231884059
val best_acc: 89.47368421052632
val best_epoch: 99
-------------------
test auc: 0.9357142857142857
test acc: 81.48148148148148
-------------------
Namespace(Adiscription='BiomedCLIP + tabtransformer', base_lr=0.0005, batch_size=1, d_model=256, gpu='0', hidden_dim=64, init_lr=1e-07, layer_num=6, lr_way='cos', model_mode='union', nclass=2, num_epochs=100, num_warmup=10, saveName='fcn_ablation', savePath='log/fcn_ablation', seed=3407, weight_decay=0.0005)
union_model(
  (tabular_transformer): TabTransformer(
    (category_embed): Embedding(11, 28)
    (norm): LayerNorm((23,), eps=1e-05, elementwise_affine=True)
    (transformer): Transformer(
      (layers): ModuleList(
        (0): ModuleList(
          (0): PreNorm(
            (norm): LayerNorm((32,), eps=1e-05, elementwise_affine=True)
            (fn): Attention(
              (to_qkv): Linear(in_features=32, out_features=384, bias=False)
              (to_out): Linear(in_features=128, out_features=32, bias=True)
              (dropout): Dropout(p=0.1, inplace=False)
            )
          )
          (1): PreNorm(
            (norm): LayerNorm((32,), eps=1e-05, elementwise_affine=True)
            (fn): FeedForward(
              (net): Sequential(
                (0): Linear(in_features=32, out_features=256, bias=True)
                (1): GEGLU()
                (2): Dropout(p=0.1, inplace=False)
                (3): Linear(in_features=128, out_features=32, bias=True)
              )
            )
          )
        )
        (1): ModuleList(
          (0): PreNorm(
            (norm): LayerNorm((32,), eps=1e-05, elementwise_affine=True)
            (fn): Attention(
              (to_qkv): Linear(in_features=32, out_features=384, bias=False)
              (to_out): Linear(in_features=128, out_features=32, bias=True)
              (dropout): Dropout(p=0.1, inplace=False)
            )
          )
          (1): PreNorm(
            (norm): LayerNorm((32,), eps=1e-05, elementwise_affine=True)
            (fn): FeedForward(
              (net): Sequential(
                (0): Linear(in_features=32, out_features=256, bias=True)
                (1): GEGLU()
                (2): Dropout(p=0.1, inplace=False)
                (3): Linear(in_features=128, out_features=32, bias=True)
              )
            )
          )
        )
        (2): ModuleList(
          (0): PreNorm(
            (norm): LayerNorm((32,), eps=1e-05, elementwise_affine=True)
            (fn): Attention(
              (to_qkv): Linear(in_features=32, out_features=384, bias=False)
              (to_out): Linear(in_features=128, out_features=32, bias=True)
              (dropout): Dropout(p=0.1, inplace=False)
            )
          )
          (1): PreNorm(
            (norm): LayerNorm((32,), eps=1e-05, elementwise_affine=True)
            (fn): FeedForward(
              (net): Sequential(
                (0): Linear(in_features=32, out_features=256, bias=True)
                (1): GEGLU()
                (2): Dropout(p=0.1, inplace=False)
                (3): Linear(in_features=128, out_features=32, bias=True)
              )
            )
          )
        )
        (3): ModuleList(
          (0): PreNorm(
            (norm): LayerNorm((32,), eps=1e-05, elementwise_affine=True)
            (fn): Attention(
              (to_qkv): Linear(in_features=32, out_features=384, bias=False)
              (to_out): Linear(in_features=128, out_features=32, bias=True)
              (dropout): Dropout(p=0.1, inplace=False)
            )
          )
          (1): PreNorm(
            (norm): LayerNorm((32,), eps=1e-05, elementwise_affine=True)
            (fn): FeedForward(
              (net): Sequential(
                (0): Linear(in_features=32, out_features=256, bias=True)
                (1): GEGLU()
                (2): Dropout(p=0.1, inplace=False)
                (3): Linear(in_features=128, out_features=32, bias=True)
              )
            )
          )
        )
        (4): ModuleList(
          (0): PreNorm(
            (norm): LayerNorm((32,), eps=1e-05, elementwise_affine=True)
            (fn): Attention(
              (to_qkv): Linear(in_features=32, out_features=384, bias=False)
              (to_out): Linear(in_features=128, out_features=32, bias=True)
              (dropout): Dropout(p=0.1, inplace=False)
            )
          )
          (1): PreNorm(
            (norm): LayerNorm((32,), eps=1e-05, elementwise_affine=True)
            (fn): FeedForward(
              (net): Sequential(
                (0): Linear(in_features=32, out_features=256, bias=True)
                (1): GEGLU()
                (2): Dropout(p=0.1, inplace=False)
                (3): Linear(in_features=128, out_features=32, bias=True)
              )
            )
          )
        )
        (5): ModuleList(
          (0): PreNorm(
            (norm): LayerNorm((32,), eps=1e-05, elementwise_affine=True)
            (fn): Attention(
              (to_qkv): Linear(in_features=32, out_features=384, bias=False)
              (to_out): Linear(in_features=128, out_features=32, bias=True)
              (dropout): Dropout(p=0.1, inplace=False)
            )
          )
          (1): PreNorm(
            (norm): LayerNorm((32,), eps=1e-05, elementwise_affine=True)
            (fn): FeedForward(
              (net): Sequential(
                (0): Linear(in_features=32, out_features=256, bias=True)
                (1): GEGLU()
                (2): Dropout(p=0.1, inplace=False)
                (3): Linear(in_features=128, out_features=32, bias=True)
              )
            )
          )
        )
      )
    )
    (mlp): MLP(
      (mlp): Sequential(
        (0): Linear(in_features=151, out_features=604, bias=True)
        (1): ReLU()
        (2): Linear(in_features=604, out_features=302, bias=True)
        (3): ReLU()
        (4): Linear(in_features=302, out_features=256, bias=True)
      )
    )
  )
  (atten_pool): FCN(
    (conv): Sequential(
      (0): Conv2d(768, 32, kernel_size=(3, 3), stride=(1, 1), padding=(1, 1))
      (1): Conv2d(32, 16, kernel_size=(3, 3), stride=(1, 1), padding=(1, 1))
      (2): Conv2d(16, 8, kernel_size=(3, 3), stride=(1, 1), padding=(1, 1))
      (3): Conv2d(8, 4, kernel_size=(3, 3), stride=(1, 1), padding=(1, 1))
      (4): Conv2d(4, 2, kernel_size=(3, 3), stride=(1, 1), padding=(1, 1))
      (5): Conv2d(2, 1, kernel_size=(3, 3), stride=(1, 1), padding=(1, 1))
    )
  )
  (conv3): Sequential(
    (0): Conv3d(768, 8, kernel_size=(4, 3, 3), stride=(1, 1, 1), padding=(1, 1, 1))
    (1): MaxPool3d(kernel_size=(4, 2, 2), stride=(4, 2, 2), padding=0, dilation=1, ceil_mode=False)
    (2): Conv3d(8, 256, kernel_size=(4, 3, 3), stride=(1, 1, 1), padding=(1, 1, 1))
    (3): MaxPool3d(kernel_size=(4, 2, 2), stride=(4, 2, 2), padding=0, dilation=1, ceil_mode=False)
  )
  (gap): AdaptiveAvgPool3d(output_size=(1, 1, 1))
  (classifier): Linear(in_features=512, out_features=2, bias=True)
  (fusion): MMTM(
    (fc_squeeze): Linear(in_features=512, out_features=1024, bias=True)
    (fc_visual): Linear(in_features=1024, out_features=256, bias=True)
    (fc_skeleton): Linear(in_features=1024, out_features=256, bias=True)
    (relu): ReLU()
    (sigmoid): Sigmoid()
  )
)
Total trainable pytorch params:2.100875 MB
Total pytorch params:2.100875 MB
----------
Train Epoch 0/99
Accuracy of the network on the  test images: 53.488 %


[[42 11]
 [29  4]]


SEN 12.12, SPE 79.25, ACC 53.49, F1 16.67, AUC 0.3431

Dice_Score 0.475, PA 0.946, IOU 0.473, FWIOU 0.895,
Accuracy of the network on the  test images: 55.263 %
…
